article6_Make_ONNX_model_trainable_on_device/inference_model.onnx (onnx, 45753 bytes, 5 tensors)

fc.weight f4 [3, 50]
0	0xbf2991c2	-0.66238034
1	0xbf98459d	-1.1896244
2	0x3f8a21a0	1.0791512
3	0x3e9b98f9	0.30390146
4	0x3ef899bc	0.4855479
5	0x3e1c6416	0.15272555
6	0xbfa20bb0	-1.2659817
7	0x3f0a1c20	0.53949165
8	0x3dc36e31	0.09542502
9	0x3f70c115	0.9404462
10	0x3ecfc733	0.40581664
11	0xbde5083b	-0.111832105
12	0xbcd42f4b	-0.025901457
13	0xbf929355	-1.1451212
14	0xbe69fd1f	-0.22850464
15	0x3e3b6d35	0.18303378
16	0xbf86d7d0	-1.0534611
17	0xbd11ef7b	-0.035628777
18	0xbe47e525	-0.19521005
19	0x3a95dcdf	0.0011433623
20	0x3e4f438e	0.20240614
21	0xbdc00ab1	-0.09377039
22	0xbf302328	-0.68803644
23	0xbe980030	-0.29687643
24	0x3da8fefb	0.08251759
25	0x3e1c2c07	0.1525117
26	0xbf832926	-1.0246933
27	0xbf87782d	-1.058355
28	0x3f19f3bd	0.6013754
29	0x3f9ad00d	1.2094742
30	0x3da98150	0.082766175
31	0x3f0d1ee1	0.5512524
32	0xbe30dfd5	-0.17272885
33	0x3da4412e	0.080202445
34	0x3de8de5f	0.11370539
35	0xbebc21ff	-0.36744687
36	0x3f4941c0	0.7861595
37	0xbe3ced7a	-0.18449965
38	0xbf21f80a	-0.632691
39	0x3e1174b0	0.14204669
40	0xbe7253b4	-0.23664743
41	0xbe9c6c85	-0.30551544
42	0x3f505987	0.8138661
43	0xbf16db8d	-0.5892876
44	0x3d86a44d	0.06574307
45	0xbf354d97	-0.7082152
46	0x3acd7c66	0.0015677332
47	0xbf19850f	-0.59968656
48	0x3e5d8d0d	0.21635838
49	0xbe42722b	-0.18988864
50	0xbd5f5d37	-0.054532256
51	0x3ec80fab	0.39074454
52	0xbeab14d4	-0.33414328
53	0xbe7487c0	-0.2387991
54	0xbd820995	-0.06349484
55	0x3e4741dc	0.19458717
56	0x3ece7c9f	0.40329453
57	0xbed10521	-0.40824226
58	0x3e197a46	0.1498805
59	0xbe6c0211	-0.23047663
60	0x3ef3e881	0.47638324
61	0x3d9b77a0	0.07591176
62	0x3f36501c	0.7121599
63	0x3e462c55	0.19352849
64	0xbeafbe95	-0.3432509
65	0x3efce03d	0.4938983
66	0x3e465fbb	0.19372456
67	0x3f099d76	0.5375589
68	0xbe8e06cd	-0.27739564
69	0xbef852c7	-0.48500654
70	0x3d8e9f54	0.06963983
71	0x3cbe74b6	0.023249011
72	0x3dcddb1a	0.10051556
73	0x3e87801e	0.26464933
74	0x3d8cebdf	0.06880926
75	0x3e7a1f29	0.24425949
76	0x3da605ac	0.081065506
77	0x3e69a430	0.22816539
78	0xbe23747f	-0.15962408
79	0xbe38eed4	-0.18059856
80	0x3f0f7cfd	0.5605009
81	0xbe43dae8	-0.19126475
82	0xbe438db7	-0.19097029
83	0x3ce726ee	0.028216805
84	0xbe85b02c	-0.2611097
85	0x3eb2f82b	0.34954962
86	0xbe0e4684	-0.13894087
87	0xbf14b5da	-0.58089983
88	0x3e88ad76	0.2669484
89	0x3e0c7248	0.1371547
90	0x3d350be2	0.044200785
91	0x3de33ea7	0.11095934
92	0xbe21fcdb	-0.15819113
93	0x3e97f4bd	0.29678908
94	0xbf2bdf8d	-0.67137986
95	0x3e112ed8	0.14178026
96	0xbd823753	-0.063582085
97	0xbc6fe54f	-0.014642074
98	0x3c799224	0.015232597
99	0x3dccfe52	0.10009445
100	0x3d7e93b8	0.062152594
101	0xbddd219d	-0.10797427
102	0x3cea1734	0.028575517
103	0x3d9f220e	0.07770167
104	0xbdc802a7	-0.09766131
105	0xbde45d75	-0.11150638
106	0xbdc55628	-0.096355736
107	0x3e41257f	0.1886196
108	0xbf1330cd	-0.5749634
109	0xbe546c05	-0.20744331
110	0xbf94a773	-1.1613601
111	0x3e55e688	0.20888722
112	0xbf7c51a9	-0.98562104
113	0x3b4c50a5	0.0031175998
114	0x3f0b9352	0.5452167
115	0xbea902c0	-0.3300991
116	0xbca65412	-0.02030376
117	0xbf4ddcfd	-0.80415326
118	0x3f00b1a0	0.50271034
119	0x3f84991e	1.0359228
120	0xbed6f675	-0.41984907
121	0x3e0c9cca	0.13731685
122	0x3bb5c0ae	0.005546651
123	0xbdac6f77	-0.08419698
124	0xbdc2d5e8	-0.09513456
125	0xbeb3c9c2	-0.35114866
126	0xbd551e1c	-0.052030668
127	0x3e5e6eee	0.21722004
128	0xbddcf20c	-0.10788354
129	0xbe1428c4	-0.14468676
130	0xbf4f7ea6	-0.81052625
131	0xbe235ab6	-0.15952572
132	0x3eacda54	0.3376032
133	0xbe98f78f	-0.29876372
134	0x3e6b70fd	0.2299232
135	0xbe1466a1	-0.14492275
136	0x3df91fd9	0.121642776
137	0x3f3c4122	0.73536885
138	0x3ea68896	0.32526082
139	0xbdcecea2	-0.10098006
140	0x3e437c2b	0.19090335
141	0x3e6c883c	0.23098844
142	0xbdc606c3	-0.096692584
143	0xbea1f574	-0.31632578
144	0x3fb0277e	1.3762052
145	0x3dc80d06	0.09768109
146	0x3eb2c844	0.34918416
147	0x3e2a75d8	0.16646516
148	0xbe0c9503	-0.13728718
149	0x3ee356a3	0.44402036

fc.bias f4 [3]
0	0x3da77c30	0.08177984
1	0xbd003663	-0.031301867
2	0xbdac72ac	-0.084203094

onnx::LSTM_109 f4 [1, 200, 1]
0	0x3e511466	0.20417938
1	0x3be3cb90	0.006951757
2	0xbdc5d6d4	-0.09660116
3	0xbd0b5734	-0.03401871
4	0x3de2d1d3	0.11075177
5	0x3dae2674	0.08503428
6	0x3d081041	0.033218626
7	0x3d8a5caf	0.06755959
8	0xbebdd348	-0.37075257
9	0xbde6cd19	-0.11269588
10	0x3ccf8f7b	0.025336972
11	0xbdbd2791	-0.09236062
12	0x3e056418	0.13026464
13	0xbcfe0b7e	-0.03101134
14	0x3e29b3fb	0.16572563
15	0x3e5d91e3	0.21637683
16	0xbd2d533b	-0.042315703
17	0x3da16c9a	0.07882042
18	0x3e63f4a4	0.22261292
19	0xbb272be9	-0.002550835
20	0xbe935ec5	-0.2878324
21	0x3e140556	0.1445516
22	0x3e0903c3	0.13380341
23	0x3e208a0a	0.15677658
24	0xbd01fa99	-0.03173313
25	0xbdfff432	-0.124977484
26	0x3cb76923	0.022389
27	0xbe0db015	-0.13836701
28	0x3dec3fc0	0.11535597
29	0x3cc2c0f1	0.023773642
30	0x3e56423e	0.20923707
31	0xbd158acf	-0.03650933
32	0xbea328db	-0.31867108
33	0xbe350b08	-0.1767999
34	0xbddf76ac	-0.10911307
35	0x3e06786c	0.13131875
36	0x3d996e52	0.07491745
37	0x3e0e0b7c	0.13871568
38	0xbd29d662	-0.041464217
39	0x3d329ff7	0.043609586
40	0x3d902c2d	0.07039676
41	0x3e2a36eb	0.16622512
42	0x3dd4b644	0.10386327
43	0xbc0aa8de	-0.008463113
44	0x3e06d6a0	0.1316781
45	0xbde5fecd	-0.1123024
46	0xbda4553a	-0.08024068
47	0x3cf0eb1c	0.029408984
48	0xbe13878a	-0.14407173
49	0x3c905b7e	0.017621752
50	0x3d49a34a	0.04922799
51	0xbe288514	-0.16457015
52	0xbe2690ce	-0.16266176
53	0xbe930f59	-0.28722647
54	0xbceb1e25	-0.028700897
55	0xbe8398df	-0.2570257
56	0xbe1bf93e	-0.15231797
57	0xbe28ff5e	-0.16503665
58	0xbeb92e4a	-0.36168128
59	0xbdb53725	-0.088484086
60	0xbdccd596	-0.10001676
61	0x3e05c26c	0.13062447
62	0xbd21fe60	-0.03954923
63	0xbe486c55	-0.19572575
64	0x3e6c1f5e	0.2305884
65	0x3e56da46	0.20981702
66	0xbdab8f47	-0.08376937
67	0x3e8ef2aa	0.27919513
68	0x3e9ec0f7	0.31006595
69	0x3d8827fd	0.06648252
70	0x3db57bb2	0.08861484
71	0xbd102600	-0.03519249
72	0x3d456e72	0.048201032
73	0xbc0048fe	-0.007829903
74	0xbda15983	-0.07878401
75	0xbea08497	-0.31351158
76	0x3dbf2b32	0.09334411
77	0x3da828cd	0.08210907
78	0x3e1d296a	0.1534783
79	0x3d4e07b2	0.050300308
80	0x3e349dc5	0.1763831
81	0x3dc762f6	0.09735672
82	0x3e39f4e4	0.18159825
83	0x3e3e5f6f	0.18591093
84	0xbe88c59b	-0.2671326
85	0xbe6866bd	-0.22695442
86	0xbe40e2c6	-0.18836507
87	0x3e4b300a	0.19842544
88	0x3dd48dac	0.10378584
89	0xbe261041	-0.16217138
90	0x3e3f2d5b	0.18669645
91	0x3eb3b0e6	0.350959
92	0x3e4720f1	0.1944616
93	0xbe8dd8df	-0.27704522
94	0x3eb85d3b	0.3600863
95	0xbceb735f	-0.028741537
96	0xbe7cfe78	-0.24706447
97	0x3e87c33d	0.26516142
98	0x3e1c22e8	0.1524769
99	0xbea438a3	-0.3207446
100	0x3e6ad713	0.22933607
101	0x3e44e513	0.1922801
102	0x3e490b62	0.19633248
103	0xbe2617b7	-0.16219984
104	0x3e3abfa5	0.18237169
105	0x3de4306f	0.111420505
106	0x3ecabeaa	0.3959859
107	0xbe36fb72	-0.17869356
108	0xbe74c3dd	-0.23902841
109	0x3eac9e4f	0.3371453
110	0xbd545180	-0.051835537
111	0x3e6564b5	0.22401698
112	0x3e0dabde	0.13835093
113	0x3ed1443d	0.40872374
114	0x3eb614cf	0.3556275
115	0x3e95e101	0.29273227
116	0x3e338fcb	0.17535321
117	0x3e9ef04c	0.31042707
118	0x3df9a7f4	0.12190238
119	0x3d6c5d0a	0.057705916
120	0x3d51e654	0.05124505
121	0x3e19739f	0.14985512
122	0x3e28e7b2	0.16494635
123	0xbd45c829	-0.04828659
124	0x3d818380	0.0632391
125	0x3d81bbc6	0.06334643
126	0xbbdddd44	-0.0067707617
127	0x3e836753	0.25664768
128	0x3d8761a6	0.06610422
129	0x3ee3123b	0.44349846
130	0x3e8695e4	0.26286232
131	0x3dd49ecc	0.103818506
132	0xbdb45d64	-0.08806875
133	0xbe2bdcd5	-0.1678346
134	0x3e30bbc5	0.17259128
135	0x3e405768	0.18783343
136	0x3ec83982	0.39106375
137	0x3e976e4d	0.2957634
138	0x3ebaf084	0.36511624
139	0x3dfa46cf	0.12220537
140	0x3ea4cc54	0.3218714
141	0xbe8bd82d	-0.27313367
142	0x3ea6bd23	0.32566175
143	0x3e6b5f08	0.2298547
144	0xbd92c700	-0.071668625
145	0xbd494dd0	-0.049146473
146	0x3e5f45aa	0.21803918
147	0x3e549e61	0.20763542
148	0xbcd175bb	-0.025568834
149	0x3ce2e2cc	0.027696036
150	0x3e231d3b	0.1592912
151	0x3ebb133b	0.3653811
152	0xbecd56cc	-0.40105283
153	0x3e07b536	0.1325272
154	0xbe7443de	-0.23854014
155	0x3dee4878	0.11634916
156	0x3ebc6565	0.36796108
157	0xbeccb577	-0.39982197
158	0x3d976a6d	0.07393346
159	0xbebbb29b	-0.36659703
160	0xbea38432	-0.31936795
161	0x3e66006b	0.22461097
162	0xbe849e94	-0.25902236
163	0x3ee66f1e	0.4500665
164	0x3e46dc80	0.19420052
165	0xbe321614	-0.17391235
166	0x3e9cbd55	0.306132
167	0xbea43c19	-0.320771
168	0x3e2a71b8	0.16644943
169	0x3e9554fd	0.29166403
170	0x3d598ba7	0.0531117
171	0x3e73b49d	0.23799367
172	0x3e89fd39	0.26951006
173	0x3e2f9262	0.17145684
174	0x3e19f300	0.15034103
175	0xbce93b98	-0.0284708
176	0x3e600a5a	0.21878949
177	0x3e909e90	0.28245974
178	0xbe4f4ee7	-0.20244943
179	0xbee7453c	-0.4517001
180	0xbead5e62	-0.3386107
181	0xbe479e79	-0.19494046
182	0x3c5b9abc	0.013403591
183	0x3bdf9256	0.0068228645
184	0xbbf0e81c	-0.0073518883
185	0x3e86d95f	0.26337716
186	0xbec822d0	-0.3908906
187	0x3eb57cab	0.35446677
188	0x3e650365	0.22364576
189	0x3e65673f	0.22402667
190	0x3de59c92	0.11211504
191	0xbd605f89	-0.05477861
192	0xbe9a05fe	-0.30082697
193	0x3eb0e8b8	0.3455255
194	0x3e8a2e26	0.26988333
195	0x3e8876a3	0.26653013
196	0xbe4900f0	-0.19629264
197	0x3e4e8b33	0.20170288
198	0x3e462abb	0.19352238
199	0xbd8fae72	-0.07015695

onnx::LSTM_110 f4 [1, 200, 50]
0	0x3dd0a6ff	0.10188102
1	0x3d5dab96	0.054118715
2	0xbe491a80	-0.19639015
3	0x3e4063ab	0.1878802
4	0xbce5d8a2	-0.0280574
5	0x3ec2e789	0.38067272
6	0x3e65d80a	0.22445694
7	0xbe886b43	-0.26644334
8	0x3e823e9b	0.2543839
9	0xbdb03bb8	-0.086051404
10	0xbe04545b	-0.12922804
11	0xbcb8777f	-0.022517918
12	0x3d3b741c	0.045765027
13	0x3db4a385	0.088202514
14	0x3e10ff8c	0.14159983
15	0x3e088204	0.13330847
16	0x3e2911ff	0.16510771
17	0xbbeb7c54	-0.007186452
18	0x3ccf5946	0.025311124
19	0xbd97d7de	-0.0741422
20	0x3e6ba865	0.23013456
21	0x3c824251	0.015900763
22	0x3d1687f4	0.03675075
23	0x3e587e89	0.2114202
24	0x3d9f69f9	0.077838846
25	0x3ee14bf7	0.4400327
26	0x3d763655	0.06011041
27	0x3e904ae2	0.2818213
28	0xbe4d5cd3	-0.20054941
29	0xbe5db73e	-0.21651933
30	0xbbeb8e88	-0.007188622
31	0xbe273122	-0.16327336
32	0xbeb5feab	-0.3554586
33	0x3e8ee2cb	0.27907404
34	0xbed92636	-0.42411965
35	0xbc1bf6fd	-0.009519336
36	0xbe80fff0	-0.25195265
37	0x3da82682	0.0821047
38	0x3e2db4d7	0.16963516
39	0x3e982181	0.2971306
40	0x3d77ea7c	0.060526356
41	0x3e9618af	0.29315707
42	0x3c2bf6fc	0.010495897
43	0x3e795c2a	0.24351564
44	0x3ca01ea9	0.01954587
45	0x3e6aa464	0.22914273
46	0xbea60713	-0.32427272
47	0x3d4c1b7b	0.049830895
48	0x3e929f07	0.28636953
49	0xbef738a0	-0.4828539
50	0x3d04c73a	0.03241656
51	0x3d7e899f	0.062142964
52	0xbe7aa6ff	-0.24477766
53	0x3e5cfe75	0.21581443
54	0xbe81f375	-0.25381055
55	0x3ec1a21b	0.3781899
56	0x3e1ff569	0.1562096
57	0xbd5610ec	-0.05226223
58	0x3ef46f40	0.47741127
59	0xbe188757	-0.14895378
60	0x3d95cdb3	0.07314625
61	0x3d8d27a1	0.06892324
62	0xbe0740b9	-0.13208283
63	0x3e96aca3	0.29428586
64	0xbd6af1c3	-0.05735947
65	0x3d7bf6a1	0.0615145
66	0x3e3d851a	0.18507805
67	0xbd227885	-0.039665718
68	0xbe85fb07	-0.2616808
69	0xbd5949a1	-0.053048734
70	0x3f0be33f	0.54643625
71	0x3c89de89	0.016829746
72	0x3dfd15cf	0.12357675
73	0x3d8e9cbb	0.06963488
74	0x3e8e67e3	0.27813634
75	0x3efb7daa	0.49119312
76	0x3e4a9397	0.19782864
77	0x3e137389	0.14399542
78	0x3cd60ecc	0.026130103
79	0xbe508b73	-0.20365696
80	0x3d29e308	0.04147628
81	0xbc9b640f	-0.01896861
82	0xbefb7e4e	-0.491198
83	0x3e92f6e9	0.28704002
84	0xbe73e8a3	-0.23819213
85	0x3e5953cd	0.21223374
86	0xbe7a245f	-0.24427937
87	0xbc7c9ff7	-0.015418998
88	0x3ea0418c	0.31300008
89	0x3e2b721c	0.16742748
90	0x3ded15a1	0.11576391
91	0x3ecb1007	0.39660665
92	0xbd5e0666	-0.05420532
93	0x3ea79451	0.32730344
94	0x3c8684a2	0.016420666
95	0x3dc838cf	0.097764604
96	0xbedbbd06	-0.4291765
97	0x3e82da97	0.25557396
98	0x3e6cc0b8	0.23120391
99	0xbecba4fb	-0.39774308
100	0x3df04068	0.117310345
101	0x3eb7bbcd	0.35885468
102	0xbed4227b	-0.41432557
103	0x3c6f15f2	0.0145926345
104	0xba57ff10	-0.00082396064
105	0x3e887e2d	0.26658764
106	0x3e8f2c60	0.27963543
107	0xbeea6cb7	-0.45786068
108	0x3dd3cd2f	0.1034187
109	0xbe9f6349	-0.31130436
110	0xbdca23d1	-0.09870113
111	0x3e7dd8b0	0.24789691
112	0x3d23d51b	0.039998155
113	0x3e93528f	0.28773925
114	0xbd7a28db	-0.06107412
115	0x3ddc7cf1	0.10766018
116	0x3e7951dc	0.24347633
117	0xbda9f205	-0.08298115
118	0x3c649ef2	0.013953911
119	0xbe6f310a	-0.2335855
120	0x3e515389	0.20442022
121	0x3dc9dd99	0.098567195
122	0x3e343e8e	0.17601988
123	0x3e5c8dd0	0.21538472
124	0x3e1bef01	0.15227892
125	0x3e0e676f	0.13906644
126	0x3e3dbaad	0.18528242
127	0x3e4e00fd	0.20117564
128	0xbd58b346	-0.052905343
129	0xbe6ec37d	-0.2331676
130	0xbd63b2e0	-0.05559051
131	0xbe4c85dc	-0.19972938
132	0xbe401294	-0.18757087
133	0x3e741b45	0.23838528
134	0xbd795aa0	-0.060877442
135	0x3de73b6c	0.11290631
136	0xbecf08fc	-0.40436542
137	0x3dbbce24	0.091701776
138	0x3eece654	0.46269476
139	0x3d199e40	0.037504435
140	0x3eae25a7	0.340131
141	0x3e96b957	0.29438278
142	0xbe8ec29b	-0.27882847
143	0x3e8ba28c	0.2727245
144	0x3d05bb41	0.032649282
145	0x3e76c8c8	0.2410003
146	0xbe1483af	-0.14503358
147	0x3e4885c7	0.19582282
148	0x3d25c490	0.04047066
149	0xbe8c5f41	-0.27416423
150	0xbdf5faa3	-0.12010696
151	0x3ce8c5a4	0.028414555
152	0x3d6b9438	0.0575144
153	0xbd51176e	-0.051047735
154	0xbdbb5725	-0.09147481
155	0x3dd5d0db	0.10440227
156	0x3cd4882a	0.025943834
157	0xbdbd1966	-0.0923336
158	0x3e607bac	0.21922177
159	0x3e347c65	0.17625578
160	0x3e24518b	0.16046731
161	0xbd5945ae	-0.053044967
162	0x3ea85eb3	0.3288475
163	0xbd1ce24c	-0.03830175
164	0xbd91b6f6	-0.07114975
165	0x3e921e35	0.2853867
166	0xbb0ad68a	-0.0021185004
167	0x3e5e6739	0.21719064
168	0xbdb2c59b	-0.087290965
169	0xbe06bf51	-0.13158919
170	0x3e995a74	0.29951823
171	0xbdcf6988	-0.1012755
172	0xbdf785af	-0.12086045
173	0x3d1dc606	0.038518928
174	0x3e4f4e48	0.20244706
175	0x3e134f82	0.14385799
176	0x3d88b477	0.06675046
177	0xbd49df3f	-0.04928517
178	0x3e02215e	0.12708041
179	0xbd3c3d0c	-0.045956656
180	0x3d472b10	0.048625052
181	0x3e3f88ac	0.1870448
182	0xbd5caab9	-0.05387375
183	0x3e95a133	0.29224548
184	0xbdceae8d	-0.10091887
185	0xbddb02b4	-0.10693875
186	0xbc87fc9f	-0.016599951
187	0xbe31b81b	-0.17355387
188	0xbe349a84	-0.17637068
189	0xbda125cc	-0.07868537
190	0x3c83413d	0.016022319
191	0x3de056bf	0.109540455
192	0xbc735187	-0.014850981
193	0x3e433279	0.19062223
194	0xbe10c923	-0.14139228
195	0xbde1f8d9	-0.11033792
196	0xbe37b7d2	-0.17941216
197	0xbe48abae	-0.1959674
198	0x3e7f6d8d	0.24944134
199	0xbca16881	-0.019703152
200	0x3e38a586	0.18031892
201	0x3e3542d8	0.1770128
202	0xbd57257d	-0.052525986
203	0x3e7fe466	0.24989471
204	0xbc8bd217	-0.017067952
205	0x3e9c8deb	0.30577025
206	0x3dafc99e	0.08583377
207	0xbc3f7d28	-0.011687554
208	0x3e19df03	0.15026478
209	0xbdfbff87	-0.12304597
210	0x3d2284cf	0.039677437
211	0x3e190571	0.14943482
212	0xbc425fcf	-0.011863663
213	0x3dc6ac47	0.09700828
214	0xbc8a5a33	-0.016888713
215	0x3c0b7a85	0.008513098
216	0x3e495cc8	0.196643
217	0x3d84c594	0.064829975
218	0x3d629b42	0.055323847
219	0xbd539abc	-0.051661238
220	0x3eb2faad	0.34956875
221	0xbb9860a3	-0.004650192
222	0x3df0774a	0.117415026
223	0xbbcd236e	-0.006260327
224	0x3d099427	0.033588555
225	0x3e635751	0.22201277
226	0x3c042a8a	0.008066783
227	0x3dd2e38d	0.10297308
228	0xbd3e1711	-0.046408717
229	0xbe2214ff	-0.15828322
230	0x3e3403c6	0.17579564
231	0xbd9f36c7	-0.0777412
232	0xbe407712	-0.18795422
233	0x3e0ca7c2	0.1373587
234	0xbdf8167f	-0.12113666
235	0x3dea4416	0.114387676
236	0xbe5f80e0	-0.21826506
237	0xbdcf6913	-0.10127463
238	0x3e7ad780	0.24496269
239	0x3e61fdeb	0.22069518
240	0x3e646e0b	0.22307603
241	0x3f00e469	0.50348526
242	0xbd83266d	-0.064038135
243	0x3e1d5425	0.1536413
244	0x3d20a28a	0.03921751
245	0x3d319d2d	0.043362785
246	0xbe070c12	-0.13188198
247	0x3e1feb08	0.15617001
248	0x3e58fcb7	0.21190153
249	0xbe96ac50	-0.2942834
250	0x3dce483a	0.1007237
251	0x3db0bb3b	0.086294614
252	0xbdda9c62	-0.10674359
253	0x3d7057e8	0.058677584
254	0xbe33f9b5	-0.17575724
255	0x3e601217	0.218819

onnx::LSTM_111 f4 [1, 400]
0	0x3d8c3189	0.068453856
1	0xbd0ed070	-0.03486675
2	0xbd84b4b7	-0.06479781
3	0xbcdcac11	-0.026937516
4	0xbdbf044d	-0.09326992
5	0x3ce7cc94	0.028295793
6	0xbd87bcc4	-0.06627801
7	0x3e4a8fa9	0.19781365
8	0x3e779fd0	0.24182057
9	0xbe0a81a6	-0.1352602
10	0x3c4ab0c5	0.012371247
11	0x3d4a69cc	0.049417302
12	0x3d2bfe2f	0.041990455
13	0x3c8b8173	0.0170295
14	0x3e56e987	0.20987521
15	0x3e5c9226	0.21540126
16	0xbc075627	-0.008260286
17	0x3d10a51f	0.03531372
18	0x3ea0aefa	0.31383497
19	0x3e32191c	0.17392391
20	0x3e765ec3	0.24059586
21	0x3b2b70bb	0.0026159722
22	0x3d13e955	0.036111195
23	0xbe0ddb25	-0.13853128
24	0x3e0ddbd4	0.13853389
25	0x3e009096	0.12555155
26	0x3d842ec9	0.06454236
27	0xbcb0c292	-0.021577153
28	0xbd00e015	-0.0314637
29	0x3b522f0c	0.00320715
30	0x3e9495fa	0.29020673
31	0x3e2dbad9	0.16965808
32	0x3e8214e6	0.2540657
33	0x3e692d41	0.22771169
34	0x3d3de9df	0.046365615
35	0xbc20a623	-0.009805235
36	0x3d08df62	0.03341616
37	0x3e698ccd	0.22807617
38	0x3d1dd391	0.038531844
39	0xbc9652cc	-0.018350028
40	0x3d169588	0.036763698
41	0x3ce3e141	0.02781737
42	0xbd54976a	-0.051902212
43	0x3e25a816	0.16177401
44	0x3dc9c65e	0.09852289
45	0xbccc8f9d	-0.024970824
46	0x3c3e345e	0.011609165
47	0x3e3dfcfa	0.18553534
48	0x3e72467f	0.23659705
49	0x3e0a94a9	0.13533272
50	0x3dbfaa91	0.09358705
51	0xbd49392a	-0.04912678
52	0xbd750c26	-0.05982604
53	0x3d97bde6	0.07409267
54	0xbd02c40d	-0.03192525
55	0xbc45a18b	-0.012062441
56	0xbc871e81	-0.016494038
57	0x3cb0ccea	0.021582086
58	0x3da9799d	0.08275149
59	0xbe504fc1	-0.20342924
60	0xbdcad123	-0.09903171
61	0x3c4859d7	0.012228451
62	0x3e482bfc	0.19548029
63	0xbd71d273	-0.05903859
64	0x3dd5bf15	0.10436837
65	0x3ea74de9	0.32676628
66	0x3b61e21b	0.0034467045
67	0xbce4c7b2	-0.027927253
68	0x3dbe6bfe	0.092979416
69	0x3d9f7870	0.077866435
70	0x3df13d05	0.11779217
71	0xbdf3a068	-0.118958294
72	0x3e107f2e	0.14111015
73	0x3d814599	0.06312103
74	0xbd11b9b0	-0.035577476
75	0x3ea5b530	0.32364798
76	0x3dbf6b0c	0.093465894
77	0x3da99f3f	0.08282327
78	0xbc9a4726	-0.018832754
79	0xbca1b5ea	-0.019740064
80	0x3acd7d1c	0.0015677544
81	0x3dd8cb32	0.105856314
82	0x3ebfc2bd	0.3745326
83	0x3e1c053d	0.15236373
84	0xbdc8ea56	-0.09810321
85	0x3da122fd	0.078680016
86	0x3da25e3e	0.079281315
87	0x3d74eabe	0.05979418
88	0x3db6257d	0.08893869
89	0x3d2de34b	0.04245309
90	0xbd68b2be	-0.056811087
91	0xbdb3b491	-0.08774675
92	0xbc232110	-0.009956613
93	0x3dd61d4e	0.10454808
94	0x3e6c7dc4	0.23094851
95	0x3e4baa71	0.19889237
96	0x3da88e52	0.082302704
97	0x3e361111	0.17779948
98	0x3e70e400	0.23524475
99	0x3e377d8d	0.17918988
100	0xbd3e304a	-0.04643277
101	0x3e1ce2aa	0.1532084
102	0x3e1d0d6a	0.15337148
103	0x3d8265d8	0.063670814
104	0x3ded4501	0.11585427
105	0xbce98982	-0.028507952
106	0xbd4f2464	-0.050571814
107	0xbdd23048	-0.10263115
108	0x3dd03711	0.10166753
109	0x3df20ec8	0.118192255
110	0x3e27ceed	0.1638753
111	0x3d31305f	0.04325902
112	0xbb3c5b24	-0.0028740847
113	0x3e03eb03	0.12882619
114	0x3dd0a2d5	0.10187308
115	0x3e566620	0.20937395
116	0x3dfa243b	0.12213942
117	0x3d3e8bc2	0.046520002
118	0x3eb178ee	0.34662575
119	0xbddd8a9e	-0.10817455
120	0x3cb02461	0.021501722
121	0x3e1f31c9	0.15546335
122	0x3e11b352	0.14228562
123	0x3d9a5cb3	0.07537212
124	0x3e5329e4	0.20621449
125	0x3e4ad5bb	0.19808094
126	0xbd775997	-0.060388174
127	0x3cb95772	0.022624705
128	0x3dbbb4cb	0.09165343
129	0xbdaff122	-0.08590914
130	0xbdbad280	-0.09122181
131	0x3d9ab8a3	0.07554748
132	0x3d1dce23	0.038526665
133	0x3e45cbf0	0.19316077
134	0xbdd17b24	-0.10228565
135	0xbdccfadd	-0.10008786
136	0x3c85b0a0	0.016319573
137	0xbd95481e	-0.07289146
138	0x3ae5e298	0.0017538844
139	0x3e7eece6	0.24895057
140	0x3bfd1fec	0.0077247526
141	0x3df8ed67	0.12154656
142	0x3dd586d0	0.10426104
143	0xbd26c107	-0.04071143
144	0x3d6fd67a	0.05855415
145	0x3b9e7976	0.0048362566
146	0x3d1a46ff	0.037665363
147	0x3d83665e	0.06416009
148	0x3e6e89ba	0.23294726
149	0x3e0638e2	0.13107637
150	0x3e46409a	0.19360581
151	0x3e10c670	0.14138198
152	0x3e56f600	0.20992279
153	0x3e492b28	0.19645369
154	0xbe0364ba	-0.12831393
155	0x3de750f5	0.11294738
156	0x3e3e6ff2	0.18597391
157	0xbd0a274c	-0.033728883
158	0x3dc6e6a0	0.09711957
159	0xbda12a7c	-0.078694314
160	0x3d939802	0.072067276
161	0xbcdb2a00	-0.026753426
162	0xbdc597e6	-0.09648113
163	0x3deac1bd	0.11462734
164	0xbe9d5b0c	-0.30733526
165	0x3e6bf4d7	0.23042618
166	0x3e2c21b8	0.16809738
167	0x3d165e6a	0.036711134
168	0xbe6f6b5e	-0.23380801
169	0x3e321253	0.17389803
170	0x3e60c30d	0.21949406
171	0xbe088db3	-0.13335304
172	0x3e36def2	0.17858484
173	0xbe20ef8b	-0.15716378
174	0x3e89ab5a	0.26888543
175	0x3ea3fc2e	0.32028335
176	0x3e3074c1	0.17232038
177	0xbc7e0c7e	-0.015505908
178	0x3e4daff1	0.20086648
179	0xbe143ae3	-0.14475589
180	0x3dce7996	0.100817844
181	0x3dca75e4	0.09885767
182	0xbe541748	-0.20712006
183	0x3e3870db	0.18011801
184	0x3ccb385f	0.024807153
185	0xbccdec6f	-0.025137154
186	0xbdbc3222	-0.091892496
187	0xbe2a9f15	-0.16662247
188	0x3d35138c	0.044208094
189	0x3ea0d2d2	0.31410843
190	0x3d8b1a15	0.06792084
191	0x3d28ecea	0.041241564
192	0xbe3df217	-0.18549381
193	0x3e39ea17	0.18155704
194	0xbe2e280a	-0.17007461
195	0x3d35c63c	0.044378504
196	0xbe2c3663	-0.16817622
197	0xbe0a73dd	-0.13520761
198	0x3ea5f890	0.324162
199	0xbe33334c	-0.17500037
200	0x3e5e2767	0.21694718
201	0x3cea57fd	0.02860641
202	0xbdc5978b	-0.09648045
203	0xbc968b11	-0.018376859
204	0x3d123bbc	0.0357015
205	0xbc13766d	-0.009000403
206	0x3dc0e42f	0.094185226
207	0x3db9902f	0.09060704
208	0x3dff403b	0.12463423
209	0xbe5fb1a7	-0.21845113
210	0xbe1a2388	-0.15052617
211	0x3d4a3834	0.049370006
212	0xbd151253	-0.03639443
213	0x3d96e644	0.073681384
214	0x3e5f4f4f	0.21807598
215	0x3dcca2a6	0.0999196
216	0x3cbe2389	0.023210304
217	0x3e0496ab	0.129481
218	0x3ea8470e	0.3286671
219	0x3d71c7a6	0.05902829
220	0x3e9a5b67	0.3014786
221	0xbd7df9a7	-0.062005665
222	0x3c4e6eb9	0.0125996405
223	0xbcf8c54c	-0.030367516
224	0x3d341d39	0.04397318
225	0x3e599de9	0.21251644
226	0xbd96be37	-0.07360499
227	0xbd239883	-0.03994037
228	0xbe031621	-0.1280141
229	0x3e5a44e5	0.21315344
230	0x3e0f9331	0.14020993
231	0x3d2e572f	0.042563614
232	0x3dc315a1	0.0952561
233	0x3e1f4431	0.15553357
234	0xbdcda052	-0.10040344
235	0xbd7c6fb3	-0.061629962
236	0x3e0252b5	0.12726863
237	0x3df834c4	0.12119439
238	0x3ca3f6fe	0.020015236
239	0xbc12738f	-0.008938684
240	0x3e11daca	0.14243618
241	0x3e0e8088	0.13916218
242	0x3e495ecf	0.19665073
243	0x3d556167	0.052094843
244	0x3e0b18de	0.13583705
245	0x3d8a16f0	0.06742656
246	0x3e5be426	0.2147375
247	0x3e8b37c4	0.27190983
248	0x3b580c34	0.0032966258
249	0x3d4703c7	0.048587587
250	0x3dd9fba9	0.106437035
251	0x3df2c0ab	0.11853155
252	0xbde20e23	-0.110378526
253	0x3d846f5c	0.064665526
254	0xbd9e10be	-0.07718037
255	0x3da55030	0.08071935
