article6_Make_ONNX_model_trainable_on_device/lstm_model.onnx (onnx, 44873 bytes, 5 tensors)

fc.weight f4 [3, 50]
000000 c9 b5 8b be 5d 29 7e be 95 51 b1 3e b1 5a 6f 3e
       -0.2728713 -0.24820466 0.34632555 0.2337444
000010 f9 e1 e6 3d 6f 80 15 3e 38 6f 62 be bb 1a 8e 3c
       0.112735696 0.14599775 -0.22112739 0.01734673
000020 6c 25 88 3d 9b 94 92 3e 38 5f 99 3e d3 77 85 bd
       0.06647763 0.28629002 0.2995546 -0.06516995
000030 55 15 ab 3b a0 a5 9d be 61 bd 64 be c4 46 46 3e
       0.005221049 -0.30790424 -0.22337867 0.19362932
000040 f2 05 4e be 40 13 01 3c 6b 7a 40 be 55 bb 6c bc
       -0.20119455 0.007878125 -0.18796699 -0.01444896
000050 ac 2f 42 3e 6c cb c7 bb c0 8f e9 bd 43 fd d2 bd
       0.18963498 -0.006097248 -0.11404371 -0.10302212
000060 ea 21 7f 3d 8a 65 0c 3e 2d 1e 68 be e3 a1 a3 be
       0.062288202 0.13710609 -0.22667761 -0.31959447
000070 ab 8e 67 3e 61 a9 38 3e e7 b4 d1 3d 6e 90 5a 3e
       0.22613017 0.18033363 0.102395825 0.21344158
000080 c8 87 25 be 4c 84 81 3d b7 d4 9e 3d 82 6f 12 be
       -0.16165078 0.06324062 0.07755416 -0.1430035
000090 f9 3f 78 3e 7d 61 4b be a1 51 8f be e9 d7 00 3e
       0.24243154 -0.19861408 -0.27991965 0.12582363
0000a0 d3 83 4b be 17 e0 07 be d8 8b 65 3e 62 ff c1 bd
       -0.19874506 -0.13269077 0.22416627 -0.094725385
0000b0 e1 fb 00 3d da 14 59 be a9 70 3f 3c 25 96 b3 be
       0.03149021 -0.2119936 0.011684575 -0.3507549
0000c0 f6 ac 3e 3e 52 0d 19 be c8 45 7e bd 09 eb 4a 3e
       0.18620667 -0.14946488 -0.062078267 0.19816221
0000d0 d7 93 2a be bb 88 28 be f6 7e be bc 9b b2 16 3e
       -0.16657959 -0.16458409 -0.023253899 0.1471657
0000e0 64 15 45 3e d7 64 35 be 69 e1 23 3c 9a 86 21 be
       0.19246441 -0.17714249 0.010002472 -0.15774003
0000f0 27 c1 e4 3d bd d9 c7 3d 9c 2c 83 3e 98 63 ba 3c
       0.111696534 0.09758327 0.25619972 0.022752568
000100 da 39 4c be a3 80 a5 3e bd 50 1c 3e aa 28 2c 3e
       -0.19943944 0.32324705 0.15265174 0.16812387
000110 78 42 1d be 5e 5e 50 be 0f 9f 0d 3d 20 f1 59 3d
       -0.15357387 -0.20348498 0.03457552 0.05320847
000120 45 e5 9c 3d 4a bc 2c 3e d2 18 cb 3d c9 77 28 3e
       0.07660917 0.16868702 0.099168435 0.16451944
000130 a4 79 82 3d dd c7 3c 3e 94 8a 14 be d8 aa 6e bd
       0.06370857 0.18435617 -0.14505988 -0.058268398
000140 49 a1 40 3e 29 c3 2e be 90 1c 0c be b8 76 de 3c
       0.18811525 -0.17066635 -0.1368277 0.027156219
000150 12 73 2f be a0 e6 46 3e 4c 8e e2 3c 94 87 5f be
       -0.1713374 0.19423914 0.027655743 -0.21829063
000160 a4 79 5c 3e fd 99 13 3e 4f 5f 86 3d eb 1e c1 3d
       0.21530777 0.1441421 0.065611474 0.09429725
000170 9d c2 bd bd f5 b1 92 3d 77 c3 67 be 56 67 f1 3d
       -0.09265635 0.07162849 -0.22633158 0.11787288
000180 04 84 f9 bc b3 32 0a bd 99 64 2b 3d 9c 6c 0c 3e
       -0.030458458 -0.033739757 0.041843984 0.13713306
000190 af 7d 1a 3d a4 ca 9f bd bd b5 b8 3b ec 0d 3b bd
       0.037717517 -0.078023225 0.0056368993 -0.045667574
0001a0 cb dd 94 bd ba 5b 0a bc b3 cf a7 bd 60 4d 2e 3e
       -0.07268866 -0.008444721 -0.08193912 0.17021704
0001b0 67 d7 8c be b1 84 3a be 8c 58 9c be 37 ed 33 3e
       -0.2750809 -0.1821468 -0.30536306 0.17570959
0001c0 b1 26 96 be 1d 42 34 bc 87 64 88 3e ad 0a cc bd
       -0.29326394 -0.011002091 0.26639196 -0.09962974
0001d0 40 1e 60 bd 04 8a a8 be 37 d6 89 3e 8b 44 96 3e
       -0.05471635 -0.32917798 0.26921245 0.2934917
0001e0 65 fc 8e be 08 01 8a 3d db 20 e3 bc ae a1 bb bd
       -0.27926937 0.06738478 -0.027725628 -0.09161697
0001f0 c9 d2 00 be 73 3b 42 be e1 6a a8 bd c6 f7 44 3e
       -0.12580408 -0.1896799 -0.082235105 0.19235143
000200 5a 74 98 bd e3 bb f8 bd 7b 13 81 be 69 9d 09 be
       -0.07444067 -0.121452115 -0.25210175 -0.13438953
000210 ec 40 40 3e b5 f9 82 be 01 73 04 3e cc d8 98 bd
       0.18774766 -0.25581136 0.12934496 -0.07463226
000220 32 8b f0 3d 37 96 49 3e 7c 95 9c 3e 07 c8 a9 bd
       0.117452994 0.19686209 0.30582798 -0.08290105
000230 e5 a3 26 3e 57 98 53 3e 6c 18 91 bd c6 8d 52 be
       0.16273458 0.20663582 -0.07084736 -0.20561895
000240 ad a7 86 3e f6 4a 5d 3d 0a 0d 86 3e 7d 22 10 3e
       0.262998 0.054026566 0.26181823 0.14075656
000250 34 fd bf bd 35 f6 91 3e
       -0.093744665 0.28508154

fc.bias f4 [3]
000000 ce e2 93 3d 9d bf 15 bc 84 7e d6 bd
       0.07220994 -0.009139922 -0.1047335

onnx::LSTM_109 f4 [1, 200, 1]
000000 4d 0f 65 3e e9 b4 42 3d 62 8f 77 bd 81 06 78 bc
       0.22369118 0.04753581 -0.060439475 -0.015138269
000010 de 5e 17 3e ca ef db 3d 63 78 8d 3d 52 13 b2 3d
       0.14782283 0.107390955 0.069077276 0.08695091
000020 ec 94 9a be 9c 18 36 bd 3b 00 67 3e 91 df 37 bd
       -0.30191743 -0.044457063 0.22558682 -0.044890944
000030 27 4d e5 3d 19 05 75 3d 46 bc c5 3d a0 3e 7e 3e
       0.11196356 0.059819315 0.09655051 0.24828577
000040 0f 5b d4 3c 08 7b e4 3b 91 43 82 3e 31 4f 3b 3d
       0.025922326 0.0069726743 0.25442174 0.04572982
000050 02 41 82 be 1b fd 25 3e 12 3a 23 3e b8 09 3c 3e
       -0.25440222 0.16209833 0.15940121 0.18363082
000060 68 37 44 3d 4f 7b 3e bd d9 d0 87 3d 89 5e 8b bd
       0.047904402 -0.046504315 0.066316314 -0.068051405
000070 35 ea 86 3d 50 27 f0 3d 9d fc 61 3e eb 55 88 bd
       0.0658764 0.11726248 0.2206902 -0.066570126
000080 b4 03 93 be 4f 11 df bd 82 c5 0b bd 27 6f 0f 3e
       -0.28713763 -0.10891973 -0.034123905 0.14007245
000090 b0 c1 01 3e 7b 9f e5 3d 0f 9f b4 bd 96 78 9d 3d
       0.12671542 0.11212059 -0.088194005 0.076890156
0000a0 a4 96 a6 3c a9 00 5d 3d 50 38 06 3e 74 11 a7 3d
       0.020335503 0.053955708 0.13107419 0.08157626
0000b0 2a a5 77 3b e8 61 9d bc 68 53 52 bd 8d 72 30 bd
       0.0037787654 -0.019211724 -0.051349074 -0.043077994
0000c0 59 5f 88 bd 78 05 e0 3c d5 10 e0 3d 3f a0 f4 bd
       -0.06658811 0.027346358 0.109407105 -0.11944627
0000d0 6b 36 82 bd 4c b3 41 be 34 ae 26 3d 55 56 4b be
       -0.06358036 -0.18916053 0.040693477 -0.19857152
0000e0 36 ee a6 bd c3 ef a2 bd d8 83 9c be 79 44 cd 3d
       -0.08150904 -0.07955887 -0.3056934 0.10022826
0000f0 4d 92 9f 3d 42 c7 18 3e 6f 8f 03 3d f4 32 67 3a
       0.077915765 0.14919761 0.03211921 0.0008819543
000100 7d d4 13 3e f8 fb 20 3e 48 68 18 bc 32 8a 8b 3e
       0.14436527 0.15721118 -0.009302206 0.27253872
000110 ab a8 84 3e 03 07 d8 3d a2 c5 b3 3d 22 cf 95 3d
       0.25909933 0.105482124 0.0877793 0.07314898
000120 a9 28 a9 3d d5 be ee bb 0b 4a 05 bc 06 c3 90 be
       0.082597084 -0.0072859325 -0.008135329 -0.2827379
000130 f3 ac 07 3e 54 49 2d 3e 41 3c 0c 3e 1a ae e5 3d
       0.13249569 0.16922504 0.1369486 0.11214848
000140 a1 8d 1f 3e 89 a0 10 3e 66 74 42 3e 34 0f 4d 3e
       0.15581371 0.1412374 0.18989715 0.20025331
000150 3e 6c 1e be 76 8e 29 be 1a 22 d5 bd da 99 3b 3e
       -0.15470979 -0.16558251 -0.10406895 0.18320408
000160 1a 1f b8 3d fc 7b d6 bd 3b ff 2c 3e 01 c5 93 3e
       0.08990307 -0.10472867 0.16894238 0.2886124
000170 a6 43 49 3e 3f 6c 53 be ae fa 26 3e d0 8a 5e 3d
       0.19654712 -0.20646761 0.16306564 0.0543316
000180 a9 ca 54 be 22 a1 90 3e 4c 8f 1c 3e 60 1a 8a be
       -0.20780434 0.28247935 0.15289038 -0.26973248
000190 b0 a9 f9 3d 59 9a 02 3d d1 aa 43 3d 01 da 7a bd
       0.121905684 0.03188548 0.047770325 -0.06124306
0001a0 53 d3 d4 3d 30 f9 cf 3d 3e c9 50 3e 90 ad 15 be
       0.103918694 0.101549506 0.20389268 -0.1461699
0001b0 aa 52 ae bd 5d 31 45 3e fc e1 b8 3c 65 0e bb 3d
       -0.08511861 0.19257112 0.022568695 0.09133605
0001c0 55 68 95 3d cb 88 63 3e 51 cf 59 3e b3 57 4e 3e
       0.072952904 0.22220151 0.21270491 0.20150642
0001d0 a7 d5 43 3d bf 5b 46 3e 23 55 73 3d 31 8e 2b 3d
       0.047811177 0.19370936 0.059407365 0.04188365
0001e0 1d 73 a9 3c 01 f0 86 3d 5a bf cd 3c 65 0b 23 bd
       0.020684773 0.06588746 0.025115658 -0.03980579
0001f0 13 4e 2d 3d 2a 30 e7 3c 34 c3 2f bd 24 0b 2d 3e
       0.042310786 0.028221209 -0.04291077 0.16898781
000200 d8 68 a2 3d eb 41 70 3e 0c da 32 3e ee c4 89 3d
       0.079301536 0.23462646 0.17465991 0.067270145
000210 56 7c bf bd 51 8b 19 be 2a cb 4f 3d e0 7f 8a 3d
       -0.09349887 -0.14994551 0.05073086 0.067626715
000220 cf 10 5e 3e ad fe 42 3e ea e8 85 3e 1c ec 7e 3d
       0.216861 0.19042464 0.26154262 0.06223689
000230 ab 9c 5b 3e cd e0 ea 3a 64 cc 35 3e b2 fa ac bb
       0.21446483 0.0017919779 0.1775375 -0.0052789086
000240 2d 2a 1f bd 25 cd 87 3b 73 3f 2b 3e 8c 5a 09 3e
       -0.03885858 0.004144328 0.16723423 0.13413447
000250 f9 2b 6a bc 55 d2 e2 bc 3e 06 cb 3d 9f ad 04 3e
       -0.01429271 -0.027688185 0.099133 0.12956856
000260 95 c4 74 be bb 7f c6 3d 9c 0a 39 be d5 4e f3 3d
       -0.23903115 0.096923314 -0.18070453 0.118802704
000270 77 68 3e 3e fe b2 07 be fb 14 85 3d 2e 94 5a be
       0.18594538 -0.13251874 0.06498142 -0.21345589
000280 8d d2 7f be 80 f8 29 3e da 14 5d be 59 a9 91 3e
       -0.24982662 0.16598701 -0.21589985 0.28449515
000290 7a c9 36 3e 21 6e 14 be a8 bd 27 3e 8a 7c 84 be
       0.17850295 -0.14495136 0.16380942 -0.25876266
0002a0 db 7c 1a 3e 34 40 0d 3e 06 60 53 3d d4 7d 54 3e
       0.15086691 0.13794023 0.051605247 0.20751125
0002b0 93 0f 0e 3e f3 ba 24 3e 03 e2 f2 3d 4d ca bc bc
       0.13873129 0.1608694 0.118595146 -0.023045683
0002c0 58 7b 24 3e 8b fd 36 3e 81 6e 47 be 79 00 71 be
       0.16062677 0.17870156 -0.19475748 -0.23535337
0002d0 2f 1c 89 be 44 66 2d be 9e 69 78 3c 03 d6 ed 3c
       -0.26779315 -0.16933542 0.0151619 0.029032713
0002e0 a5 42 12 3c c6 bb ea 3d f6 3a 7b be ea 87 94 3e
       0.008927022 0.11461596 -0.2453421 0.29009944
0002f0 69 f9 1d 3e 51 29 2b 3e 2c ca f5 3c 5d f9 7e bc
       0.15427174 0.1671498 0.03000363 -0.0155623825
000300 84 ac 22 be 44 64 91 3d 3a 79 4a 3e bb ca 3c 3e
       -0.15886122 0.07099202 0.19772807 0.1843671
000310 4d a7 32 be ce 0d 34 3e a0 76 1b 3e 44 eb 80 bd
       -0.17446633 0.17583391 0.1518197 -0.06294873

onnx::LSTM_110 f4 [1, 200, 50]
000000 8b 45 20 3d 9e e2 4e bc c1 4e 20 be d8 3e 95 3c
       0.03912882 -0.012627272 -0.15655042 0.018218443
000010 8b 07 f3 3c a2 c2 5b 3e 7f a0 17 3e 6a 8d 4c be
       0.029666683 0.21460965 0.14807318 -0.1997582
000020 f9 c3 2f 3e 42 68 73 3b 8e 0e a8 bd 20 2f 97 bd
       0.17164601 0.0037141 -0.08205901 -0.07382035
000030 8e 20 b6 3d e4 58 27 3d 4f 9e 24 3e 19 37 fe 3d
       0.08892928 0.040856257 0.16076015 0.12412853
000040 e3 21 b0 3d c0 64 fa 3c 54 5b 84 3d be 02 d4 bd
       0.086002134 0.03056562 0.06462732 -0.103520855
000050 c1 54 3e 3d f3 6c 89 3c 25 9f b0 bc 9b 15 48 3e
       0.046467546 0.016775584 -0.021560261 0.19539492
000060 75 25 ff bc 98 cb 6d 3e f4 40 5e 3b 15 d6 51 3e
       -0.03114579 0.23222196 0.0033913227 0.20491822
000070 e0 f1 1f be 22 3e 13 be b3 6d b9 3c e8 5f d8 bd
       -0.15619612 -0.1437917 0.022635316 -0.10565168
000080 5a c2 17 be 95 4e 17 3e 31 3d 52 be 0a c0 4d bd
       -0.14820233 0.1477607 -0.20531155 -0.05023197
000090 6f 9a 2d be 56 7c 59 3d f2 0c 8f 3d e0 0a 24 3e
       -0.16953443 0.05309709 0.06984891 0.16019773
0000a0 14 48 dc 3b 8c d6 db 3d 90 ff 9a 3d 6e 91 18 3e
       0.0067224596 0.10734281 0.07568276 0.14899227
0000b0 cb 76 30 bc dd ee 34 3e 78 f0 1b be 78 dc 12 bc
       -0.01077051 0.17669244 -0.1522845 -0.008963697
0000c0 a6 83 36 3e 46 a1 8f be e9 81 04 bd e2 f1 1b bd
       0.17823657 -0.2805273 -0.032350454 -0.038072474
0000d0 7a c7 25 be aa 18 bc 3c e5 df 36 be a8 4a 49 3e
       -0.16189376 0.02296098 -0.17858846 0.19657385
0000e0 43 36 66 3d 81 02 92 3c c1 63 99 3e 6d 24 f5 bc
       0.05620409 0.01782346 0.2995892 -0.029924596
0000f0 15 2f e2 3d d3 32 85 3c 22 96 be bd de 9c 4f 3e
       0.110441364 0.016259586 -0.09305979 0.20274684
000100 ae 4c d1 3c 83 6e db 3b 0f 00 ca 3d 25 f0 95 bc
       0.025549259 0.0066965236 0.098632924 -0.018302986
000110 cd 3e 20 be 98 95 6a bd df 88 ae 3e 20 36 07 3d
       -0.15648957 -0.05727157 0.340888 0.033010602
000120 21 41 6b 3d 0f 14 95 3d 7f 22 29 3e b5 d0 87 3e
       0.05743516 0.072792165 0.16517065 0.26526418
000130 2f d5 06 3e 5b 8d 4b 3d 6e 6d 72 3d 1b b0 e9 bd
       0.1316726 0.049695354 0.05918639 -0.114105426
000140 2e e0 49 3d f6 cd 32 3d 45 a5 85 be bc e4 09 3e
       0.04928606 0.04365345 -0.26102653 0.13466161
000150 36 4a 40 bd f4 00 19 3e 04 6b 0b be ed 05 da bc
       -0.046945773 0.1494177 -0.13615042 -0.026614154
000160 3d 2f 50 3e 62 b0 b5 3c 43 c2 92 3d 4e 89 c7 3c
       0.2033052 0.022178832 0.07165959 0.024357464
000170 5d 08 45 3c 34 d1 50 3e bc d5 1b 3c 86 b8 77 3c
       0.01202592 0.20392305 0.009511407 0.015119677
000180 d6 ed 66 be f5 18 43 3e 51 36 fc 3d 63 61 36 be
       -0.22551665 0.19052489 0.123150475 -0.17810588
000190 df 95 2a 3d 9f a1 a2 3d 51 01 47 be 4e 56 1e 3e
       0.041646834 0.07940983 -0.19434096 0.1546261
0001a0 07 2a a2 3c 60 cc a8 3e 5d fe 88 3d 0f 6f 41 be
       0.01979543 0.32968426 0.06689141 -0.18890022
0001b0 7d 09 d9 3d 95 56 e7 bd 66 df a7 bd 8e 4f 4f 3e
       0.10597513 -0.11295811 -0.08196907 0.20245191
0001c0 d3 e2 5b 3d 19 59 60 3d 66 ba 0f be 3c d2 4d 3e
       0.053683113 0.05477247 -0.14035949 0.2009973
0001d0 34 d8 5c 3c f5 94 2c bd 71 84 3f bd 2e 6b 85 be
       0.013479281 -0.042134244 -0.046757165 -0.26058334
0001e0 c9 f6 7a 3e f9 3a 1f 3d bb 76 d3 3d 27 a4 b3 3d
       0.24508204 0.0388746 0.103253804 0.08771544
0001f0 57 7d 4a 3e 2a ad 53 3e 39 55 a4 3d 6d 21 08 3e
       0.19774376 0.20671526 0.080240674 0.13294001
000200 76 37 64 3d 70 e2 39 bd d3 85 ae bc 9b fa f5 bd
       0.055716954 -0.045381963 -0.021304047 -0.1201069
000210 72 c7 80 be 8e ea 87 3e 09 0f ae bd 79 1e d3 3d
       -0.25152165 0.2654614 -0.084989615 0.103085466
000220 7f 80 3c be fc 32 3a 3d 72 e6 83 3e 5a c4 d4 3d
       -0.18408392 0.04545878 0.25761753 0.103890136
000230 14 af 86 3e ba 43 d7 3d 16 c9 0c be c6 f3 cb 3d
       0.2630545 0.10510965 -0.13748583 0.099586055
000240 5f db 28 3d f3 47 54 3e ab 35 58 be 21 13 11 3e
       0.041224834 0.20730571 -0.21114223 0.14167453
000250 8b 65 b3 3d 32 2a bb be 23 c2 eb bd b7 9d 37 39
       0.08759602 -0.3655563 -0.11511638 0.00017510993
000260 66 47 d5 3d 3f 4d 19 bd b8 b8 c1 bd 8f 17 aa 3d
       0.10414009 -0.037427183 -0.094590604 0.08305275
000270 cb 14 9c 3a 33 f9 87 bd ee 67 37 3e 7e dd 33 3e
       0.0011908052 -0.06639328 0.1791074 0.17564961
000280 2d 27 9e 3d 2e 7d 78 bd 05 e0 c9 3d d6 24 50 bd
       0.07722316 -0.060666256 0.098571815 -0.05081638
000290 ec 16 db bc 82 f8 77 3e 58 ac d0 bc a9 5b 08 3e
       -0.026744328 0.24215892 -0.025472805 0.13316216
0002a0 5f a8 4b bd 16 82 32 3a d6 6e 92 3e 36 7f 17 be
       -0.049721118 0.00068095454 0.28600186 -0.14794621
0002b0 de a7 fd bd 71 46 fb bc b3 58 2c 3e f4 41 02 3e
       -0.12385534 -0.030673238 0.16830711 0.12720472
0002c0 80 82 87 3d e7 c2 3f bd ef 5c 15 3e e1 51 5c bd
       0.06616688 -0.046816733 0.14586233 -0.053789023
0002d0 e7 8b 78 bd 2d d0 44 3e 51 96 36 bd 28 86 82 3e
       -0.060680296 0.19220038 -0.044576947 0.25492978
0002e0 66 4f b4 bd f4 9c f7 bd d4 15 07 bc 84 96 96 bd
       -0.088042066 -0.12090483 -0.00824495 -0.07352927
0002f0 cc fd 34 be ab ee c9 bd 5c 6b a5 3c fd bd 1b 3e
       -0.17674941 -0.098599754 0.020192795 0.15209194
000300 2d 86 80 bc 47 14 33 3e fb 4e e4 bc 05 85 06 be
       -0.01568898 0.17488204 -0.027869692 -0.1313668
000310 d9 c7 2a be ca a9 4e be 00 d0 5c 3e 8f 77 8c bc
       -0.16677798 -0.20181957 0.2156372 -0.017146854
000320 46 1a 1d 3e 61 aa f9 3d 94 37 e3 bb 66 c5 36 3e
       0.15342054 0.121907 -0.0069341157 0.17848739
000330 1b f2 53 3c 5c f4 70 3e 46 29 d7 3c 3e 02 af 3c
       0.01293614 0.23530716 0.026264798 0.021363374
000340 8f 4f 80 3e eb 22 c9 bc d7 7f 55 3d 3d a1 06 3e
       0.25060698 -0.024552783 0.05212387 0.13147445
000350 50 84 49 bc 1c 10 4c 3d 27 42 88 bc cd 43 b3 3b
       -0.012299612 0.04982005 -0.016633106 0.005470729
000360 3a 61 15 3e 16 61 57 3d 29 95 9e 3d 4a 55 04 bd
       0.1458787 0.052582823 0.07743294 -0.0323079
000370 80 2f 74 3e 1b 2b 4e 3d 36 98 bf 3d a2 8d ed 3c
       0.23846245 0.050334077 0.09355204 0.0289982
000380 c5 f7 68 bc 01 d1 11 3e ec ae b4 bc b7 51 67 3d
       -0.014219229 0.14239885 -0.022056065 0.056474414
000390 c9 aa 57 bc ba 3a c3 bd da 22 1b 3e 0c 16 64 bd
       -0.013163277 -0.095326856 0.15150014 -0.055685088
0003a0 01 c5 40 bd cb 53 9f 3d 9c 90 fa 3b 66 f4 0c 3e
       -0.047062878 0.07779654 0.0076466333 0.13765106
0003b0 6b 18 20 be 83 be a1 bd 85 08 24 3e cb cc 22 3e
       -0.15634315 -0.07897665 0.16018875 0.15898435
0003c0 bb 1c 4c 3e b8 e0 08 3e 18 26 f6 bc 44 c7 c4 3d
       0.19932835 0.13366973 -0.030047461 0.096083194
0003d0 6c 23 9b 3d 01 bd f1 3c 4d 5b 70 bd aa e1 06 3e
       0.075751156 0.02950907 -0.05868082 0.13172022
0003e0 e3 1c 3b 3e ca e0 81 be bf 92 b1 3d 22 7b a8 3d
       0.18272738 -0.25366813 0.08670568 0.08226611
0003f0 16 9f dd bd d1 b7 54 3d b8 9b 1a be ce 0e 58 3e
       -0.10821359 0.051933113 -0.15098464 0.21099398

onnx::LSTM_111 f4 [1, 400]
000000 87 73 d3 3c 22 18 43 bd d5 47 bd 3c 6e 35 ca bc
       0.025811924 -0.047630437 0.023105541 -0.02468368
000010 81 44 83 bd cb 89 1f 3d 15 91 9b bd d1 cc 28 3e
       -0.064095505 0.03894977 -0.075960316 0.16484381
000020 94 b3 7c 3e 89 f1 85 3d 01 af e6 3d be cc ca 3d
       0.24677879 0.0654021 0.11263848 0.09902333
000030 aa 20 61 bb 61 cc 5e 3d da 95 f5 3d 08 e0 59 3e
       -0.0034351745 0.05439413 0.119914725 0.21276867
000040 e3 b2 e7 39 35 f2 c5 3b 6b af 99 3e 37 1f 2e 3e
       0.00044193034 0.006040836 0.30016646 0.17004095
000050 a3 40 6d 3e 66 78 ab 3d c4 46 77 3c 12 f6 51 bd
       0.23169188 0.083725736 0.015092555 -0.05126006
000060 1e 14 13 3e b6 e8 fc 3d 1a ce 74 3d 09 43 73 3d
       0.14363143 0.123490736 0.059766866 0.0593901
000070 d5 3f 11 3c 25 78 95 3c 13 cd 82 3e 1c f8 52 3e
       0.008865316 0.018245766 0.25547084 0.20602459
000080 e8 5b 78 3e 16 25 82 3e 12 31 db 3d dd 24 e4 3c
       0.2425381 0.2541892 0.10702719 0.027849609
000090 e6 4f 8c 3d 14 8b 68 3e 03 62 48 3d 23 2c 52 bd
       0.06851177 0.22709304 0.048921596 -0.051311623
0000a0 9f 86 37 3d 6f 27 3f 3b d6 04 ac bd d4 e6 32 3e
       0.04480612 0.0029167791 -0.0839936 0.17470866
0000b0 7f 7a 50 3d dd 64 00 3b 3d ff 2a bb c0 0b 3c 3e
       0.05089807 0.001959137 -0.0026092075 0.18363857
0000c0 a5 ce 7e 3e 1d 99 fd 3d 8e 79 b8 3d db d3 40 bd
       0.24883516 0.1238272 0.0900756 -0.04707704
0000d0 e8 13 44 3d 4e f8 bf 3d fa 49 2f bc 9a fa ab 39
       0.047870547 0.09373532 -0.01069879 0.00032802374
0000e0 51 86 d7 bb d1 73 32 3d 04 47 99 3d 93 4f 90 3c
       -0.006577291 0.043567482 0.07484248 0.017616069
0000f0 6f a3 6a bc ff 13 00 3d 46 1d 4a 3e 77 88 58 3b
       -0.014321192 0.03126907 0.1973773 0.0033040324
000100 09 aa cd 3c aa 0f 9a 3e 1b 77 0c 3c 1b 5a dc bc
       0.025105493 0.30090076 0.008573319 -0.026898434
000110 94 19 a2 3d a6 7a 75 3d b9 df 98 3d b5 18 3d bd
       0.07915035 0.05993142 0.07464547 -0.04616614
000120 d5 f8 01 3e 11 d2 e2 3d 25 d6 fe bb b9 86 a2 3e
       0.12692578 0.11075223 -0.007776993 0.3174341
000130 30 d2 99 3d d0 15 ca 3d 66 a4 10 3d bb 47 a0 bc
       0.07510793 0.09867442 0.035313033 -0.019565454
000140 2b 0a da bc 7c af 3a 3e 01 2d a5 3e 56 1d f5 3d
       -0.026616177 0.18231004 0.32260898 0.11968486
000150 84 ac 69 bd dd e0 9d 3d b2 20 ca 3d b0 d6 87 3d
       -0.05704929 0.07708905 0.098695174 0.06632745
000160 57 7a 02 3e 28 3f 59 3d 8f 36 9a bc 93 d4 59 3b
       0.12741981 0.053038746 -0.018824844 0.0033238276
000170 dd 05 44 bd d0 ea d0 3d 81 91 03 3e fb 52 61 3e
       -0.047857154 0.10201037 0.12848474 0.22004311
000180 50 65 96 3d da e8 7e 3e 75 d2 4a 3e 9b d3 3a 3e
       0.073435426 0.24893513 0.19806845 0.18244784
000190 12 92 28 bd 81 d2 02 3e 22 ca 07 3e f5 3a a5 3d
       -0.04115493 0.12775613 0.13260701 0.08067886
0001a0 7f a3 df 3d f7 40 23 bd 96 6f 87 bd 01 9c 81 bd
       0.10919856 -0.039856877 -0.0661308 -0.063285835
0001b0 40 f4 1c 3e 05 e4 e3 3d 41 0d 1f 3e 9a 75 14 3d
       0.15327549 0.11127476 0.155324 0.036244966
0001c0 63 35 bc bd 0d 9e f0 3d a7 0a dd 3d a8 5e 49 3e
       -0.0918987 0.11748896 0.107930474 0.19665015
0001d0 d9 91 ca 3d 4f 3a 5c 3d 82 f0 99 3e 00 8c b2 bd
       0.098910995 0.053766545 0.30066305 -0.08718109
0001e0 76 1c 1b bc 63 0e 01 3e 51 e4 0f 3e 4b c7 c9 3d
       -0.009467235 0.12603144 0.1405194 0.09852465
0001f0 a6 06 1c 3e e5 a7 22 3e 70 a7 da bd 3e 58 00 3d
       0.15236911 0.15884359 -0.106764674 0.031334154
000200 7e 18 d3 3d 44 4e ed bd 1e 00 70 bd d8 7f c4 3d
       0.10307406 -0.115871936 -0.05859386 0.09594697
000210 9f 3b f0 3c d4 04 44 3e e5 7f ef bd 6d f7 ce bd
       0.029325305 0.19142467 -0.11694316 -0.101057865
000220 01 4b 8e ba d0 f7 1f bd f4 3d 55 3b 8d 0a 2f 3e
       -0.0010856093 -0.03905469 0.0032538148 0.17093869
000230 55 5f 72 3c 00 b3 fa 3d 6c 4d 9a 3d 01 6c 0d bd
       0.014793237 0.12241173 0.07534298 -0.03452683
000240 d8 cc 94 ba ae 34 12 3d 3f 3a 16 bd 05 4b 8e 3d
       -0.0011352552 0.03569477 -0.03667664 0.069479026
000250 78 da 57 3e c1 b9 ba 3d 42 a5 27 3e 84 37 d5 3d
       0.21079433 0.09117461 0.16371635 0.104109794
000260 44 a7 2a 3e af eb 27 3e 5c 3c 14 be ef bf b2 3d
       0.1666537 0.163985 -0.1447615 0.08728015
000270 5d 7d 16 3e 5b fc ad 3c 42 11 f0 3d 38 2a 7e bd
       0.1469626 0.021238497 0.11722042 -0.06205198
000280 09 4b 38 3d 3f d9 5b bc df e3 1b bd 49 4f a3 3d
       0.044993434 -0.013418495 -0.03805911 0.07974107
000290 31 c7 92 be f2 67 60 3e 00 1c bb 3d d1 aa 2d 3d
       -0.28667596 0.21914652 0.091362 0.04239923
0002a0 32 d0 52 be 27 35 04 3e 57 a7 22 3e f6 cf 08 be
       -0.20587233 0.12910901 0.15884148 -0.13360581
0002b0 1f 16 0f 3e c3 ed ef bd c5 92 32 3e cb 6c 8f 3e
       0.13973282 -0.11715271 0.174388 0.2801269
0002c0 27 53 2a 3e fd 37 db bc a9 6d 20 3e 6e a6 96 bd
       0.16633283 -0.026760096 0.15666832 -0.07355963
0002d0 95 3f 04 3e e1 54 bc 3d 85 d0 26 be 87 e6 1b 3e
       0.1291488 0.09195877 -0.16290481 0.15224658
0002e0 6f 33 7c 3c 30 d1 48 3d ad e2 0c bd b6 68 29 be
       0.015393122 0.04902762 -0.034395862 -0.1654385
0002f0 d1 c8 24 3d 4d 8e 5d 3e 7c 7f a7 3d bf fc 7a 3d
       0.040230576 0.21636315 0.081786126 0.061276194
000300 c5 f7 07 be db 86 0c 3e 2a 3b 12 be a4 7f 3e 3d
       -0.1327811 0.13723318 -0.14280382 0.046508446
000310 b5 42 bf bd e3 1d cf bd be cf 64 3e c0 fa 05 be
       -0.09338895 -0.10113122 0.22344872 -0.13083935
000320 21 7d 32 3e 5d c8 81 3c 08 87 0c bc 57 14 84 bc
       0.17430545 0.015842611 -0.008577116 -0.01612298
000330 df dd 84 3d 25 bd d8 3a dc 0f ad 3d f7 14 6c 3d
       0.06487631 0.0016535862 0.084502906 0.05763718
000340 14 b4 04 3e e6 b9 91 bc 20 dc 4d bd f2 b3 ca 3d
       0.1295932 -0.017788839 -0.050258756 0.09897603
000350 2d 91 a7 bd ed 6b e3 3d c7 30 03 3e 70 3e c7 3d
       -0.08181987 0.111045696 0.12811576 0.09728706
000360 af b6 02 3d cd 39 cd 3d 7f 47 a1 3e 0b e0 61 3d
       0.031912502 0.1002079 0.3149986 0.055145305
000370 8e cc 95 3e 75 80 9c 3c 26 ef 09 bc 0a 14 69 3d
       0.29257625 0.019104222 -0.008418834 0.056903876
000380 66 fe 48 3d c2 81 57 3e f5 85 a0 bd c5 0b 28 3d
       0.04907074 0.21045592 -0.0783805 0.04102685
000390 4d 94 b3 bd 3c ab 69 3e ad 02 d8 3d 7d a6 a1 3d
       -0.087685205 0.22819227 0.10547385 0.07893083
0003a0 9f 7a ab 3d 0c 61 3a 3e 4f c8 22 bd 7e 67 c4 bc
       0.083729975 0.18201083 -0.03974181 -0.02397513
0003b0 ba 42 26 3e 60 31 f6 3d ed 13 f9 3c 9a 9f 2b bd
       0.16236392 0.12021136 0.03040501 -0.041900255
0003c0 26 17 1a 3e cc 01 ea 3d 5b 82 28 3e 53 2e 85 3d
       0.15047893 0.11426124 0.16455977 0.06502976
0003d0 96 a8 b4 3d 12 3e c1 3d cc 54 4d 3e 2c 3f 8a 3e
       0.08821218 0.09435667 0.20051879 0.2700132
0003e0 af 82 7e 3c d2 e3 17 3d a6 ca d2 3d 2d f3 f6 3d
       0.015534087 0.0370825 0.10292558 0.12058101
0003f0 5d c4 2f bb c5 a9 ac 3d ce 2f 65 bd 2e b0 be 3d
       -0.0026819922 0.084308185 -0.055953793 0.09310947
