article6_Make_ONNX_model_trainable_on_device/onnx_training_cpp_demo_classification/classification_model.onnx (onnx, 44855 bytes, 5 tensors)

fc.weight f4 [3, 50]
00000000: 826f 3cbe 3bf7 72be 41fd b3bd f9b1 69bd
00000010: 013a 693e 99e9 193e 6e8b a3bd 8ff7 6bbe
00000020: ace6 a23d f969 0f3d d207 613d 1818 6e3e
00000030: 8262 8a3e d68c c9bd c591 613e a608 48be
00000040: c1cc 153e e56d e3bc cdd4 5e3d 4948 2bbe
00000050: f323 0a3e a6d4 2abe c8c5 ed3d 1a58 b3bc
00000060: b1d2 e93d 16d5 7fbd c232 73be 4b87 8b3d
00000070: 0ebd 3d3e 1adb 923d 2634 88be fd80 2bbe
00000080: d206 433e cb51 823d ab77 513e 4b4a be3d
00000090: 15da 9a3d 58c3 b03d 26e3 2a3e cd01 ccbd
000000a0: ee98 183e 3280 8d3d 561e d83d 48a9 78be
000000b0: 4682 31be bd2f 8a3d 8446 83be c0db 063e
000000c0: c459 ae3d 4264 2f3e c612 1e3e 8f0e 0b3d
000000d0: deb5 173e 8d57 9ebd 8c9b 84be 9629 6dbd
000000e0: 3c79 673e f9e8 6f3e 280c 49be e4ff 283c
000000f0: 5368 f7bd bbbb 4dbe 0274 38bd ecec f13d
00000100: f6f0 72be c282 673e e119 43be 3b4d efbd
00000110: 6b8b 18be 412e bbbc 024f cfbd a756 b33d
00000120: ea18 78be e469 653e 3bbc 46be 9ea0 72bd
00000130: 0a89 2e3e 8de9 913d c577 f8bd d8b6 4cbe
00000140: d052 69bc 86c6 0e3e 8b63 25be d400 b03d
00000150: ee8d 5bbe 9ffe 64bc b07a f13d b2f9 53be
00000160: f3b6 d0bc 8e88 703e 46cb a5bd 64da 38be
00000170: 791a 0a3c 93fe 793e 3261 ef3d 887d 8e3d
00000180: 0b0d 633e dc4c 34be 8df1 793c 76d7 01be
00000190: fcd7 093e e0c0 ef3b 4d56 90bd 8dca 323e
000001a0: 4a34 ee3c 1269 38be 97c3 26be 939e 803c
000001b0: 645e a7bd 7387 74bd 4c37 46be 0862 44be
000001c0: 7115 2ebe d1cf 07be 7e2c ffbd 98f1 30be
000001d0: a8df 51be d6fd 1b3e 79d6 59be f498 8c3e
000001e0: 24fa c4bd fa13 323e 06c6 693d de3a 16be
000001f0: 96de e13d dfda 8d3e d030 293e 7aa9 29be
00000200: d4b6 e3bd 6082 2bbe 9487 8b3e 45ee 90bd
00000210: 8681 ee3d c6ba 2ebe 91b0 9c3d bb75 1a3e
00000220: f04e ddbd 5f86 463e eaa2 2f3d 7729 5f3e
00000230: 59dc 5ebe 0601 01be 93dd 69be d0ce fa3d
00000240: ab58 043e 9e1f 3cbd 59b2 253e fa13 ee3d
00000250: 8096 0ebe 8f08 dbbd
-0.18401912 -0.23727123 -0.08788539 -0.057054494 0.22776033 0.15030517 -0.079855785 -0.23043655
0.079541534 0.035013173 0.0549391 0.23251379 0.2702828 -0.098413154 0.22028263 -0.19534549
0.14628889 -0.027762363 0.05440216 -0.16726793 0.13490276 -0.16682681 0.116099894 -0.021892596
0.11417139 -0.062459074 -0.23749831 0.068129145 0.1852915 0.071706966 -0.26602286 -0.16748424
0.1904557 0.06363257 0.20455806 0.09291514 0.07561127 0.08631009 0.16688213 -0.09961281
0.14902088 0.06909217 0.10552661 -0.24283326 -0.17334852 0.067473866 -0.25639737 0.13169765
0.08513215 0.17128089 0.15436849 0.03394943 0.1481547 -0.07731543 -0.25899923 -0.057900988
0.22604841 0.23428716 -0.19633543 0.010314915 -0.12080445 -0.20091145 -0.04503251 0.118127674
-0.23724732 0.22608474 -0.19052841 -0.116846524 -0.14896934 -0.022849204 -0.101224914 0.08756762
-0.24228254 0.22403675 -0.19407742 -0.059235208 0.17044464 0.071246244 -0.12132219 -0.19991624
-0.014240935 0.13942918 -0.16151254 0.08593908 -0.2144086 -0.013976722 0.11790979 -0.2070072
-0.025477862 0.23489591 -0.08095412 -0.1805206 0.008429163 0.24413519 0.116884604 0.06957537
0.22172944 -0.17607445 0.015255344 -0.12679848 0.13461298 0.0073166937 -0.070477106 0.1746008
0.029077668 -0.18008831 -0.16285549 0.015700614 -0.081723005 -0.059699487 -0.19357032 -0.19178021
-0.17000367 -0.1326287 -0.12459658 -0.1727966 -0.20495474 0.1523355 -0.21273221 0.27460444
-0.09618023 0.17390433 0.057073615 -0.14670894 0.11028783 0.27706048 0.16522527 -0.16568556
-0.11118856 -0.16748953 0.27251875 -0.07076696 0.116457984 -0.17063436 0.07650865 0.15083973
-0.10806072 0.19387196 0.042879976 0.21793161 -0.21763743 -0.12598047 -0.2283843 0.122464776
0.12924449 -0.04592859 0.16181315 0.11624904 -0.13924599 -0.10694992

fc.bias f4 [3]
00000000: a1e0 ff3d dc4d 483d 9020 e13d
0.124940164 0.048902377 0.10992539

onnx::LSTM_109 f4 [1, 200, 1]
00000000: 2f06 7b3d 6034 da3c 3d18 293e 5145 233d
00000010: 61f8 3a3e 685c 293e b277 fcbc adfa d9bd
00000020: 391e 3d3d 0fb8 5abd b806 4b3e b474 babd
00000030: dad5 fa3a b886 133d 8694 c63d 8745 9cbc
00000040: b2ba 50be f60f ed3d 324c d2bd 92ec fe3d
00000050: 3198 6e3e 22cb 4b3d 0727 783e 27ea d73d
00000060: d26a f13d 75bb 5bbe bdab 243e c557 59bc
00000070: 379d 763d 047f 23be 7b0b 563e 88c6 803c
00000080: 24aa 273d f201 2abc 0c97 26be f89c fabd
00000090: 431d f3bd ae47 07be 1ec9 8d3d 5c4a 473e
000000a0: a022 983c 53d9 133e a3c1 ca3b 8348 e7bb
000000b0: c5a8 ba3d 4709 f1bb e47f 353e 9607 36be
000000c0: 5e9e c13c 88a0 b53a 544e 633e f230 29bd
000000d0: 9353 803e 2886 65ba 8711 af3d 6b3a 713e
000000e0: 7020 0b3e 54db 6cbe 581a 4b3e 6075 c8bc
000000f0: aee2 303e f9a7 66be 26ef e43b 751b 8dbe
00000100: 31bc d2bd b26d 983c b9d2 2fbd 23a3 493c
00000110: 462f 81be 78a8 433e 89a9 233e fb87 943d
00000120: a504 c8bd 0cbb bbbd 426d 643e efed 3a3d
00000130: 828b 323e 0353 cdbd c2d9 7bbe 53b0 debd
00000140: a483 d83c fdcf 0f3e ea52 863d 33e8 99bd
00000150: 71c3 52be 5ae6 62be a119 383d 4cca 81be
00000160: 669c 793d 9989 a23d 1e05 79be e8a7 cfbd
00000170: a199 b33d 86d6 863e 16ef 0c3e d2b4 b8bd
00000180: 37ac 333e fa9e 893c f286 ae3d 18d9 07be
00000190: d598 31bd 1c16 05be cd81 893d c80a 5a3c
000001a0: a266 a63d cb56 99bd d3b3 3c3e 407a fbbc
000001b0: f4f4 803d ec3a c33d 879a 093d f680 39be
000001c0: 0ca3 853d 9968 4abe 0d55 e63c 9435 8ebd
000001d0: 2457 6cbe c5ed 8c3d 15f1 1ebe 1471 e43d
000001e0: c7a0 19be eef1 803e 2268 f6bd 2e0e 8bbe
000001f0: 3bc5 5d3e e3ba 74bd 4357 653e ee16 6cbd
00000200: b99c 65bd f51d 2dbe 0d8a cfbd dc70 593d
00000210: ea28 cfbd b2bd 30bd 288f 6dbb 8020 0d3c
00000220: bbc5 72bc abd8 71be d761 263e 57e0 2c3d
00000230: 3a5d ca3c d84c 1fbe ca77 0d3b e640 423e
00000240: 5a44 563e 29ac 163d ccf2 d13d 9607 70be
00000250: 2255 b33d 9dc4 62bc e79a f1bd 4f1c 81be
00000260: 4247 12be 7b82 e63d 3e4c 213e be36 703e
00000270: 26a2 5ebe fc18 01be e470 723e 418f cb3d
00000280: 6382 023e 5f32 42bd 8403 6a3e 0f9f a1bd
00000290: 0283 a83d 864f 5cbe 5ff2 143e d672 bf3d
000002a0: 3dda b1bd 3dc3 57be 3d5e 2c3e 4379 d9bd
000002b0: f280 523e 7712 33be af84 7f3e b7ac b93c
000002c0: 6855 27be 5a00 03be ec68 60bc 8ce4 553e
000002d0: 2a6f 8fbe 05a9 50be 36ad 133e e128 e23a
000002e0: 5264 f63c 75c5 73bd 9fed eebd 180e 153e
000002f0: de33 1b3e 662c 2fbe 38b9 c33d 3eaa 343e
00000300: 30f5 0c3e de72 1bbe 96b0 14bd ba34 99bd
00000310: ea4e 61be 3020 853e 0494 923c 1873 0b3e
0.061285194 0.026636302 0.16513152 0.039861027 0.18258812 0.16539156 -0.030818794 -0.10643516
0.0461714 -0.05339819 0.19826782 -0.091042906 0.0019137219 0.03601715 0.09696297 -0.019076122
-0.20383719 0.1157531 -0.10268439 0.12447466 0.23300244 0.04975427 0.24233638 0.10542708
0.117879525 -0.21458228 0.16081138 -0.013265555 0.060208526 -0.15966421 0.20902817 0.015719667
0.040933743 -0.01037644 -0.16268557 -0.12236971 -0.118708156 -0.13210937 0.06923126 0.1946196
0.018571198 0.14438371 0.006187634 -0.0070582046 0.091142215 -0.0073558423 0.17724568 -0.17776331
0.023635086 0.0013857046 0.22197849 -0.041306444 0.25063762 -0.00087556476 0.08548265 0.23557441
0.13586593 -0.23130542 0.19834268 -0.024470031 0.17273971 -0.22525014 0.0069865165 -0.2756001
-0.10289801 0.018606994 -0.04292557 0.012306961 -0.2523138 0.19107234 0.15982641 0.07252499
-0.09766511 -0.09166536 0.22307304 0.045637067 0.1743603 -0.10025599 -0.24594787 -0.10873475
0.026429959 0.14044185 0.06558783 -0.075149916 -0.20582367 -0.22158185 0.044946317 -0.25349653
0.06094017 0.07936401 -0.24318358 -0.101394475 0.08769537 0.26335543 0.13763079 -0.09018864
0.17546163 0.016799439 0.085218325 -0.13266408 -0.043358643 -0.12996715 0.06714211 0.0133082345
0.081250444 -0.074872576 0.18427972 -0.030697942 0.06296721 0.09532723 0.033594634 -0.18115601
0.06525239 -0.19766463 0.028116727 -0.06943813 -0.23080117 0.068812884 -0.15521653 0.111543804
-0.15002738 0.25184578 -0.120315805 -0.27159256 0.21657269 -0.05974854 0.22396569 -0.057639055
-0.056057665 -0.16905959 -0.10133753 0.053086147 -0.101152256 -0.043149658 -0.0036248658 0.008613706
-0.01481765 -0.23617809 0.1624826 0.042206135 0.024702657 -0.15556657 0.0021586292 0.1897007
0.20924512 0.03678528 0.10251388 -0.23440394 0.08756472 -0.013840822 -0.117971234 -0.2521691
-0.14284995 0.11255356 0.1575174 0.23458382 -0.21741542 -0.12607187 0.23675877 0.09939433
0.12745051 -0.04741132 0.22852904 -0.07891666 0.08228113 -0.21514711 0.14545582 0.09348075
-0.08684204 -0.21070571 0.16832824 -0.10618832 0.20557001 -0.17487513 0.24952959 0.022665365
-0.16341174 -0.12793103 -0.01369689 0.20887965 -0.280145 -0.20376976 0.14421543 0.0017254615
0.030077133 -0.05951448 -0.116664164 0.14556158 0.15156505 -0.1710678 0.09556812 0.17643067
0.13765407 -0.15180537 -0.036301218 -0.0748076 -0.2200276 0.2600112 0.017892845 0.13618124

onnx::LSTM_110 f4 [1, 200, 50]
00000000: 7e6b 2fbd 1b01 0cbe b848 e8bd 71aa 483e
00000010: 5676 95bd fe32 f2bd 20dd 49be e81a 94bd
00000020: 1126 283d 0d34 b8bd 3e42 693d 3610 2cbe
00000030: 2d1c 223d 5ff2 5a3c 3323 103d 8fb6 8e3d
00000040: 3281 1b3d cf4c 51bd 93e5 1fbe e90c 65bd
00000050: 1876 1ebb dd26 c2bd 07b7 98bd 771d cfbd
00000060: 3222 393e 3fba 5c3e 3384 0c3c 835c c4bd
00000070: 107d fb3c a88a 1cbd 71ab c8bd 70ab 843d
00000080: 17e7 e5bd b3d4 ca3d 4166 b9bd 7dad b83c
00000090: c4f4 b33c c1c5 f53c 4e3a 1f3e 9620 b03d
000000a0: 59aa 09bd 2e42 3ebd fa20 04bd ffdb 5bbc
000000b0: 4c9f 95bd 3d5f 68bd 8610 33be e297 7fbd
000000c0: 02fb 103e 7d73 08be 4d11 31bd 5e42 1cbe
000000d0: 75ff ecbd ce27 b53d 7b86 7b3e 92eb 0abd
000000e0: 11fa 72bd cd8c 2d3e 7292 873e 6048 8d3c
000000f0: 7934 8a3e 9a3d 4cbc 6573 023e cad4 0f3e
00000100: 6800 14be 4650 ae3d cb83 22be 3af1 f53d
00000110: 75c7 c4bc eae9 563a 139b cb3d 9aed a3bd
00000120: 2989 fe3d 13c9 423d 64db f13d c925 563e
00000130: d3f6 1bbe 7cf6 e0bd b27c a9bd 0667 5dbd
00000140: aafb 08bd 8eba 0ebe 878b cbbc 1541 773e
00000150: 5b53 63be d6e3 88bd 195a 61be ac63 653c
00000160: 604f 773d 2c07 f5bd d6bc 28be 0dde 22bc
00000170: 2962 673e c618 42be 64da 81bd 0d92 1f3e
00000180: 19a5 c4bd c523 a5bd ce6f 6d3c f1d7 f9bc
00000190: 22e9 8fbd 4a33 80bb 94a3 613d 64aa 053e
000001a0: 8fee c13d 4701 1dbe cdd2 69be 0a58 1abc
000001b0: f32e 9dbd edde f1bd 2226 62bd 89c4 023d
000001c0: fd40 703d 2bfb 243e 1e26 123e 9c4c b23d
000001d0: c445 f83c 6def 533d 518c d8bd 61dc d83b
000001e0: 8051 093e 75ae 47be e2aa f2bd 26e9 76bd
000001f0: 9fd3 5dbd c0fd 363e d903 5abe fb4a 07be
00000200: ebf4 a73d f5b5 35be 00eb 2fbd 9e1a 0ebb
00000210: 5750 8fbd e77b 583e f995 503d 5203 423d
00000220: e41b 94bd 856c fbbd 270a 2d3e b808 1ebe
00000230: 2b42 90bd 15ff 6dbd 793e 423e 821a 323d
00000240: fea6 4e3d a742 23bd e207 613c 64fc 51be
00000250: 7e7c 143e 9149 98bb 3805 c53d 4810 3c3e
00000260: 2f19 7f3d 6906 1e3e 90d8 633d 1bfd 1ebe
00000270: d2ac 1ebe e1a9 333e 96b0 d1bd f3b8 31be
00000280: 2176 d13c a551 09be 61ef 8b3d 0ad2 f53d
00000290: aa6b 3abe d31c 2e3e a931 22be ba10 ad3d
000002a0: 29b1 b33d f8f6 0cbc 9f50 173c a0e1 d03d
000002b0: 4cd4 8e3c 6fda 16bd ba64 d43d 5b93 40bd
000002c0: 85dd a3bd 0ca6 cdbd 3e45 8ebd 635b d83d
000002d0: a8ca b03d 0457 79bd af15 bdbc 8cb3 263d
000002e0: fe84 09bd 21e9 5bbd 9613 873d 5377 a3bd
000002f0: a966 e938 ba7e 99bc 660d 7ebd 4c9e b0bc
00000300: a1ae bebd 19a7 1fbe b2f2 44bd 76bb 0a3e
00000310: f337 14bb 29c7 0b3c 6d24 a8bd 93bd 34be
00000320: b7f0 7a3d 0d77 ab3b 6a1e 39bd 9d74 653e
00000330: 6946 d23d 5a0c 72be 34c2 8bbe 9aa5 883c
00000340: d075 ad3d afc0 a43c a3ee 683e 3716 1dbe
00000350: 59ad ed3c 8282 533e 582c 6cbb f164 233c
00000360: be76 61bd ca6d bf3d 3b7f 85bd 52c5 b0bb
00000370: 1203 83bd b7f7 74be 8bc7 5d3d 1e08 803d
00000380: 8b91 c73d f5ae 7d3d 1675 87be 035a 16be
00000390: e000 703a 3875 303b 7fe5 1d3e 1086 53be
000003a0: dc4f 9ebc 93a7 e13d ffeb c2bd 1ebb dabd
000003b0: 4d58 21bd 5f91 97bc 8170 d33c 74de 2fbe
000003c0: 42ba 3bbe a498 26be 6506 223e f04c 67be
000003d0: c446 00be 0205 b03d 2a77 1abe 0213 03be
000003e0: d5a5 a73d 6feb a4bd 2a90 c43d ff66 863c
000003f0: b296 45bd 6376 233d c290 d33d 8dcb 313d
-0.042827122 -0.13672297 -0.11341995 0.19596268 -0.072979614 -0.11826132 -0.19713259 -0.072316945
0.041051928 -0.08994303 0.05694794 -0.16803059 0.03957765 0.01336345 0.03518982 0.06968414
0.037965007 -0.05109864 -0.1561492 -0.055920515 -0.0024179276 -0.09480069 -0.07456785 -0.10113042
0.1807945 0.21555422 0.008576441 -0.09587958 0.030699283 -0.03821817 -0.09798325 0.064780116
-0.112257175 0.099038504 -0.090527065 0.022543663 0.0219673 0.030001523 0.15549585 0.08599965
-0.03360972 -0.046449833 -0.03225801 -0.01341915 -0.07305774 -0.05673145 -0.17486772 -0.062400706
0.14158252 -0.13325305 -0.04322939 -0.15259692 -0.11572162 0.08845483 0.24563019 -0.033916064
-0.059320513 0.16948242 0.26478916 0.017246425 0.26993158 -0.012465859 0.12739332 0.14046016
-0.1445328 0.08511405 -0.15870588 0.12008901 -0.02402089 0.0008198308 0.099416874 -0.08004303
0.12428505 0.04755504 0.118094236 0.20912851 -0.15230875 -0.10984513 -0.08275737 -0.05405333
-0.03344313 -0.13938352 -0.024846805 0.2414592 -0.22199766 -0.06684081 -0.22007026 0.014000814
0.060378432 -0.119642586 -0.16478285 -0.009940636 0.22596039 -0.18954763 -0.06340483 0.15583058
-0.096018024 -0.08063463 0.014491988 -0.030498477 -0.070268884 -0.003912364 0.05508764 0.1305328
0.094693296 -0.15332519 -0.2283432 -0.009420404 -0.076749705 -0.11810098 -0.055212148 0.03192571
0.058655728 0.16111438 0.14272353 0.08706018 0.030306704 0.051742006 -0.10573638 0.006618068
0.13409996 -0.19500144 -0.118489996 -0.06028094 -0.054156896 0.17870235 -0.2129053 -0.13212197
0.08201011 -0.17745192 -0.042948723 -0.0021683346 -0.069977455 0.21141015 0.050924275 0.047366448
-0.07231882 -0.12276558 0.16898404 -0.15433013 -0.070438705 -0.058104593 0.18969144 0.04348231
0.050452225 -0.039858487 0.01373479 -0.20506436 0.14500615 -0.0046474417 0.09620136 0.18365586
0.062279876 0.15432133 0.055626452 -0.1552624 -0.15495613 0.17545272 -0.10238759 -0.17355709
0.025569024 -0.13410051 0.06832767 0.120029524 -0.18205133 0.17003183 -0.15839256 0.08450456
0.08774025 -0.008603804 0.00923553 0.101992846 0.017435215 -0.03682941 0.103707746 -0.04701553
-0.08001236 -0.100414366 -0.06946801 0.10564306 0.086324036 -0.060874 -0.023081629 0.040698573
-0.033574097 -0.053689126 0.065955326 -0.07981744 0.00011129428 -0.018737186 -0.062024496 -0.021559857
-0.093106516 -0.15591086 -0.048083015 0.13548073 -0.0022616356 0.00853137 -0.08210073 -0.17650442
0.06126472 0.005232698 -0.04519502 0.22407766 0.10267336 -0.23637524 -0.27296603 0.016680527
0.084697366 0.02011141 0.22747283 -0.15340506 0.029013323 0.20655254 -0.0036037173 0.009972797
-0.055044882 0.093471125 -0.06518408 -0.005394616 -0.0639707 -0.2392262 0.054145377 0.06251548
0.09744557 0.06193443 -0.26456517 -0.14682774 0.0009155404 0.0026925337 0.15419577 -0.2065661
-0.01932519 0.1101829 -0.09517669 -0.10680221 -0.03939085 -0.018501936 0.025810482 -0.17174703
-0.1833277 -0.16269165 0.15822752 -0.22587943 -0.12526995 0.08594705 -0.1508452 -0.1280022
0.08185927 -0.08052718 0.095978096 0.016406534 -0.048239417 0.039907824 0.10330345 0.04340701

onnx::LSTM_111 f4 [1, 400]
00000000: 8fe8 873d 4ce8 663e 1d3d a8bc fc23 8c3d
00000010: 1396 09bc e317 203e ea75 363e 3fd5 cd3c
00000020: 33aa 8a3d e9a7 9cbd 832f ed3d 62aa bf3d
00000030: 75ea dd3d 4b0c b53d 5a47 a7bb 5e1e f3bc
00000040: f4b4 4e3e 441c 943d a8f3 8b3d 8b6e 5d3e
00000050: f9d7 85bd 5c3c 183e f565 483d 943a 623e
00000060: 9d8e 273e 8645 b43d 6248 533e 5aa7 213d
00000070: 2809 063d ee73 17bd 85e4 8e3d f215 443e
00000080: 12ed 663e e008 dc3d 16b3 213d f139 abbd
00000090: 3ae1 03be 1a8a 3a3d 8c6c 1ebd f34e 303d
000000a0: 858d e53d 87fc 673d 0656 373d 6092 d43d
000000b0: 4228 233e 44b1 a2bd e2a6 cc3c 47dc a43d
000000c0: aa1c b0bd e7c6 303d 14ae 2b3e ee6a 38bc
000000d0: 6bf3 2a3e 7cb9 debd 1478 693c bd3f f93d
000000e0: e139 163e b33a 8abc 44a3 283e 683d ef3b
000000f0: 572a 453d e2d4 083e 76e7 db3d c976 bc3d
00000100: c45a 223e a64b 243e be9b 0ebd 67c0 943a
00000110: 7d8d b13d 9033 bb3c 4512 93bd ef59 013e
00000120: 378d 133e 8942 043e 0cd0 a03d a223 99bd
00000130: c6b4 4b3e 2b61 f33d 4f78 d7bd 79e3 973d
00000140: 371a 673c 99ca b9bc 5e8b 063e 1c71 cb3c
00000150: 07ed a03d 7da8 99bd bdaa 99bc 4f7f 84bd
00000160: a779 b2bd 8eca 393d 6cc0 4c3e 9c64 4f3e
00000170: 7ea5 b4bd 2a2b d23c c79b 88bd 125a bdbd
00000180: 7ecc 4c3e 8d0d bd3d 45c7 3e3e 2285 843d
00000190: f983 1a3d 13e4 a53d c521 9d3d 7626 933d
000001a0: 3cf4 88bd 5b1c e7bc 2ae9 183e 4f00 153e
000001b0: 85c9 a03d 3399 233e 0518 8c3d cd94 463d
000001c0: 8155 4cbe 63ef 0a3e 405a 54bd d45b 313d
000001d0: 1461 c73b 001e 113e 2fe3 013d 2b80 a5bd
000001e0: 9f4e 893c 8d26 983d 3794 653d 9a97 3ebe
000001f0: 0430 bc3c aa29 5c3e 4d0e 81bc a091 33bd
00000200: a72f c33d 9911 893d b821 cfbd 5362 70bc
00000210: ca67 163e 32d3 133e d6a1 503e a445 12bb
00000220: c7c2 033e ceb1 c0bd f627 5bbc fdf2 0d3e
00000230: 8bb9 ad3c 30db e93d 149c da3d 5ab1 393e
00000240: 3597 423b a559 323e e514 03be 58ac 5ebe
00000250: e198 503b e455 dfbc 3497 ee3c 7258 3f3d
00000260: c395 42be 503c d23d c9bb 6bbd 8a13 d1bd
00000270: ff71 b1bc dd3c 1b3e 0306 a43d 9861 d8bd
00000280: c52b fe3d f04e 3dbe 2c6e aa3c d620 233e
00000290: 8783 0a3d 4662 2b3d c029 3fbb ccb3 143e
000002a0: 9547 703c 4599 4fbc 5f09 1cbe a1f4 20be
000002b0: 1339 0dbb 8894 fe3d 2178 2b3e 0bec 193e
000002c0: 3fd5 2ebd 232d 7a3d 133c 06be b730 0fbe
000002d0: 5c48 a8bd f7bc c0bd 30a6 033e fff8 183e
000002e0: 8534 35bd 5760 0cbe 864d 4bbd 3473 d9bd
000002f0: 9bdb 63bd fec3 ae3c ae29 40be 026d debd
00000300: 738b 4f3c 2ed1 82bd 1927 19be f78a 953c
00000310: 77e8 2abd 16af cabd 2806 1b3e aa91 7fbd
00000320: eac6 493e 4eb9 a8bc bdb5 9ebc edde 60bb
00000330: addb 7c3e 62d1 db3d 9824 f2bc 86a2 fdbc
00000340: e4d1 9f3d 2c22 9d3d 1e96 3ebc a580 393e
00000350: c58d be3c 17b1 98bb 4918 453e 3549 1d3e
00000360: 9315 793d ccee 7c3a fd39 9c3d a94d 083d
00000370: 9e6a 1abd dbce 163d 3bc1 383e 2eec cd3d
00000380: da37 b93d 6c24 023e e796 a93d 55a0 0a3d
00000390: f909 9b3c 6acc 133e fe32 1f3e 3eb0 c93d
000003a0: 318c 053e c478 673d c080 aa3d b194 ebbd
000003b0: 43d8 043e d4fa 113e f46f d73d c25f 26bc
000003c0: 0e71 013e 7b64 903c 3ba5 d6bc 5c82 b03b
000003d0: 8f7c bcbd dd6c e3bd d4d0 313e 4d41 3e3e
000003e0: 26c4 d63d be39 a63d 1821 113e cea9 223e
000003f0: ce3f 093e 0f8b c23d b22c 573e 34ce b83d
0.06636154 0.22549552 -0.020536954 0.06842801 -0.008397597 0.15634112 0.17818418 0.025126098
0.06770744 -0.07649214 0.11581328 0.0935867 0.10835735 0.08840235 -0.0051049413 -0.029677566
0.20186216 0.07231954 0.06833583 0.216242 -0.06535334 0.14866775 0.04892536 0.22092658
0.16362996 0.08802323 0.2063308 0.03946624 0.032723576 -0.036975794 0.069771804 0.19148996
0.22551373 0.1074388 0.03947743 -0.08360661 -0.12878886 0.04554186 -0.038677737 0.04304404
0.11208633 0.056637313 0.044759773 0.10379481 0.15933326 -0.07943967 0.02498192 0.08049827
-0.08599217 0.043158438 0.16765624 -0.011255963 0.16694419 -0.10875222 0.01424982 0.1217036
0.14670517 -0.016873693 0.16468531 0.0073010214 0.04813608 0.13362458 0.10737507 0.09202344
0.15854937 0.16044483 -0.034816496 0.0011348844 0.08669565 0.022851735 -0.07181219 0.12631963
0.14409338 0.12916006 0.07852182 -0.074774995 0.19893178 0.11883768 -0.10520994 0.07416434
0.014105371 -0.022679614 0.13139102 0.024834208 0.078577094 -0.0750284 -0.018758172 -0.06469595
-0.087146096 0.045359187 0.19995278 0.20253223 -0.08820628 0.025655348 -0.06670337 -0.09245695
0.19999883 0.092311 0.18630703 0.064707056 0.037723515 0.08100142 0.07672457 0.0718507
-0.06687209 -0.028211763 0.14932695 0.14550899 0.07850937 0.1597641 0.06840519 0.04848175
-0.19954492 0.13567881 -0.05184388 0.043300465 0.0060845707 0.141716 0.0317108 -0.08081087
0.016761122 0.07429228 0.05604955 -0.18612519 0.022972114 0.21500269 -0.01575389 -0.04384005
0.09530573 0.066928096 -0.10113853 -0.01467188 0.1468803 0.14436033 0.20374236 -0.002231934
0.1286727 -0.094089136 -0.013376227 0.13862224 0.021206638 0.1141876 0.10674301 0.1813406
0.0029692177 0.17417009 -0.1280094 -0.21745431 0.0031829404 -0.027262636 0.029124834 0.046715207
-0.19002442 0.1026541 -0.057552133 -0.10208805 -0.021660803 0.15159936 0.08008959 -0.105654895
0.12410692 -0.18487144 0.020804487 0.15930495 0.03381684 0.041841768 -0.0029169172 0.14521712
0.014665504 -0.01267082 -0.1523795 -0.15718319 -0.0021548911 0.12430674 0.16745044 0.1503145
-0.042683836 0.061078202 -0.13108854 -0.13983427 -0.082169265 -0.09411042 0.12856364 0.14938734
-0.04423954 -0.13708626 -0.04963448 -0.106176764 -0.055629354 0.02133369 -0.187659 -0.10860635
0.012667525 -0.06387554 -0.14956321 0.01825474 -0.041725602 -0.09896676 0.15139067 -0.062394775
0.19704786 -0.020596173 -0.019373769 -0.0034312562 0.24693175 0.10733296 -0.029558465 -0.030961286
0.07803705 0.076725334 -0.01163247 0.1811548 0.02326096 -0.0046597826 0.19247545 0.15359958
0.06081159 0.00096486206 0.07628248 0.033277187 -0.037699334 0.036818366 0.18042462 0.10054813
0.09043856 0.12709206 0.082807355 0.03384431 0.018925654 0.14433447 0.15546796 0.09848069
0.1304176 0.056511655 0.08325338 -0.1150297 0.12973122 0.1425584 0.105194 -0.010154666
0.12640783 0.017626038 -0.026201835 0.005386634 -0.09203445 -0.111047484 0.17364818 0.18579598
0.10486631 0.08116482 0.1417278 0.15885088 0.13403246 0.094991796 0.21013144 0.09023705
