article6_Make_ONNX_model_trainable_on_device/onnx_training_cpp_demo_classification/inference.onnx (onnx, 45734 bytes, 5 tensors)

fc.weight f4 [3, 50]
000000 38 b4 7b be 86 9a b6 be 27 65 d3 bd 27 a7 a8 bd
       -0.24580467 -0.35664767 -0.10322028 -0.08235007
000010 cf 25 95 3e 65 87 8a 3e 9d 10 f1 bd b3 fd 80 be
       0.29130408 0.27056423 -0.11770747 -0.25193557
000020 c1 00 1f 3e 71 ae 23 3d 04 3c 96 3d b1 5f 8d 3e
       0.15527631 0.039961282 0.07335666 0.2761207
000030 c0 4b bd 3e c2 f8 8b bd 02 78 80 3e 22 3e 96 be
       0.36971855 -0.06834556 0.2509156 -0.2934428
000040 ea 21 42 3e d1 fe 05 bd 5e 51 bd 3d 3b 87 94 be
       0.1895825 -0.032713715 0.09244035 -0.29009423
000050 77 9d 81 3e 34 ea 42 be 54 b0 3c 3e 14 c8 66 3d
       0.2531545 -0.19034654 0.18426639 0.056343153
000060 1a a3 1d 3e 03 91 b9 bd fb 23 a9 be 70 dd a4 3d
       0.1539425 -0.09060862 -0.33035263 0.08050048
000070 c1 31 65 3e 29 4c 34 3e d6 9e c4 be 73 24 53 be
       0.22382261 0.17607178 -0.38402432 -0.20619373
000080 1d da 90 3e 04 b4 bf 3d 68 d7 62 3e 93 13 bd 3d
       0.28291407 0.09360507 0.22152483 0.09232249
000090 6c 41 c0 3d e0 dc f9 3c 35 84 44 3e 82 be 22 be
       0.09387478 0.03050083 0.19191058 -0.15892985
0000a0 e1 c1 46 3e 73 d9 e4 3d 50 64 f7 3d f2 e3 8b be
       0.19409896 0.11174288 0.1207968 -0.27322346
0000b0 17 b8 4e be 0e 95 a3 3d 30 3f bd be 5e d2 25 3e
       -0.20187412 0.07987414 -0.3696227 0.1619353
0000c0 b4 15 d5 3d 36 da 4e 3e 02 1a 6f 3e a7 a1 24 3e
       0.1040453 0.20200428 0.23349765 0.1607729
0000d0 95 bb 62 3e fc 52 ed bd 77 fd bd be 93 76 4c be
       0.2214187 -0.11588094 -0.3710744 -0.19967107
0000e0 c7 31 aa 3e a2 f0 96 3e 02 f4 9f be 6d c4 9f bc
       0.33241102 0.29480463 -0.3124085 -0.019502843
0000f0 f3 e9 f8 bd ab a1 85 be 47 fe 1d be 64 83 3a 3e
       -0.12153997 -0.26099905 -0.1542903 0.18214184
000100 0c 19 90 be 52 d5 b0 3e 38 ff 78 be bd 21 14 be
       -0.2814411 0.3453775 -0.24316108 -0.14465995
000110 72 39 44 be 91 f1 bf 3d c6 b4 76 be d2 ac b1 3d
       -0.19162539 0.09372247 -0.24092397 0.08675541
000120 16 7c b8 be 51 8a aa 3e a6 de 97 be 2c f1 de bd
       -0.3603217 0.33308652 -0.29662055 -0.10885844
000130 6d e6 97 3e 7c 3d 7b 3d 34 3f 2f be 73 a7 9d be
       0.29667988 0.061337933 -0.17113954 -0.30791816
000140 7a 0e e6 3d 83 7d 6f 3e 75 e7 96 be a8 75 ff 3d
       0.1123323 0.23387723 -0.29473463 0.12473613
000150 b2 c2 8e be b3 8f 6d bd 1b 72 43 3e 32 6d a0 be
       -0.27882916 -0.05799837 0.19086497 -0.3133331
000160 fa ab 9f bd fe 49 9f 3e 69 9a 0a be 68 db 60 be
       -0.07796474 0.3111114 -0.13535465 -0.21958697
000170 e5 1a 01 3d 7f dc a2 3e bb 49 03 3e ca cc db 3d
       0.03151979 0.3180885 0.12821095 0.1073242
000180 f0 8d b1 3e 45 5e 93 be e6 ec ef 3c f0 4a 26 be
       0.34678602 -0.2878286 0.029287767 -0.16239524
000190 1f 30 36 3e 0e 11 61 bc 7d 32 b2 bd f4 b7 61 3e
       0.17791794 -0.013736976 -0.08701036 0.22042829
0001a0 3d 33 90 3d 98 f5 92 be 75 c7 3c be c5 24 19 bc
       0.07041023 -0.28702998 -0.18435462 -0.009347145
0001b0 42 fa de bc b3 b4 41 bd 47 4c 65 be 09 3e 5d be
       -0.027218942 -0.04729147 -0.22392379 -0.21605696
0001c0 32 83 71 be 30 61 78 be 40 af 0e be 4e ab 83 be
       -0.23585203 -0.24255824 -0.1393404 -0.25716633
0001d0 7f c5 6b be d7 cb 2e 3e 8b 35 7b be 24 3d c8 3e
       -0.23024558 0.17069946 -0.24532144 0.39109147
0001e0 57 4d 43 be 23 83 57 3e 08 3a 0f 3e ae 62 80 be
       -0.19072472 0.21046118 0.13986981 -0.25075287
0001f0 88 7b 31 3e 1d 40 a8 3e 9f b1 3b 3e bf 34 36 be
       0.1733228 0.32861415 0.18329476 -0.17793559
000200 39 4e 0c be 98 ca 6c be aa 41 c2 3e ad 50 d2 bd
       -0.13701715 -0.23124158 0.37940723 -0.10269294
000210 f5 1c e0 3d 23 ee 7d be 71 37 00 3e 6a fc 45 3e
       0.10943023 -0.24797873 0.12521149 0.1933457
000220 2d 19 20 be 4f 17 a5 3e 00 18 2c 3d 58 f7 84 3e
       -0.15634604 0.32244346 0.042015076 0.25969958
000230 79 f5 80 be 5b fd 28 be 32 9d 88 be 1e 8c f8 3d
       -0.2518728 -0.16502897 -0.2668243 0.121361
000240 6e 19 29 3e 5b 11 cd bd e8 24 51 3e d7 87 57 3e
       0.16513607 -0.10013076 0.20424235 0.21047913
000250 1b 3b 39 be d0 61 03 be
       -0.18088953 -0.12830281

fc.bias f4 [3]
000000 8d 46 07 3e bc 9b 5d 3d 07 43 c3 3d
       0.13210507 0.054103598 0.09534269

onnx::LSTM_109 f4 [1, 200, 1]
000000 20 42 ed 3d 06 02 94 3d 2c ca 4c 3e 3d 96 a1 3d
       0.11584878 0.072269484 0.19998997 0.07889984
000010 7e 4a 87 3e 95 51 85 3e 77 b8 95 3c 65 d0 85 bd
       0.2642402 0.26038805 0.018276436 -0.06533889
000020 e4 82 0f 3e 56 ef 3a bd ae 97 67 3e 68 51 eb bd
       0.14014775 -0.045638405 0.22616455 -0.114901364
000030 5c 7a 70 3d 08 1a bb 3d e6 1c f1 3d 36 79 4c 3d
       0.05871044 0.091358244 0.1177309 0.049920283
000040 98 3d 67 be 7c bf 11 3e ff c3 9c bd ea de 5f 3e
       -0.2258209 0.14233202 -0.07654571 0.21862379
000050 18 d7 95 3e 29 c7 bc 3d 32 e4 9d 3e c0 57 49 3e
       0.29265666 0.09217674 0.30838162 0.1966238
000060 95 eb 44 3e 4d e8 65 be 36 36 67 3e ce e8 0f 3c
       0.19230492 -0.22451897 0.22579274 0.008783532
000070 45 b8 66 3d 9b 71 e5 bd c0 69 96 3e c9 1e 90 3d
       0.056328077 -0.11203309 0.29377556 0.07037122
000080 2c ed 98 3d 28 d8 b7 3c 8b ec 27 be 0d 70 d9 bd
       0.07467112 0.022441939 -0.16398828 -0.10617075
000090 d1 35 9e bd bd 5c c7 bb 98 15 ab 3d c8 70 6c 3e
       -0.077251084 -0.0060840533 0.08353728 0.23089898
0000a0 6c 99 a6 3c 05 ed 23 3e a7 28 0d 3c d9 05 6e 3d
       0.02033683 0.16008385 0.008615649 0.058111046
0000b0 22 bf 0f 3e ae a0 a1 3b 5a e7 74 3e ca 4e cc bd
       0.14037755 0.0049324846 0.23916379 -0.09975965
0000c0 42 83 3e 3d 28 f8 1e 3d c0 4e 8c 3e d1 ba a1 3c
       0.046511896 0.03881088 0.2740383 0.019742401
0000d0 8a 83 b2 3e 8e b3 a0 3d 87 b1 30 3e f3 84 ae 3e
       0.3486598 0.07846747 0.17255221 0.34085807
0000e0 98 39 41 3e bd bf 9c be ad 79 93 3e 18 28 fd bb
       0.18869627 -0.30615035 0.2880377 -0.007725727
0000f0 08 ce 48 3e 9d 6a 99 be 54 c6 87 3d 78 67 c0 be
       0.19609845 -0.29964152 0.06629625 -0.3757894
000100 a0 12 15 be 75 ca e0 3d ed b5 9b bd 9b 71 64 3d
       -0.14557886 0.109761156 -0.07603059 0.055772405
000110 ad 51 96 be 59 36 95 3e 7f 5d 76 3e 7d 4a e3 3d
       -0.2935919 0.29143026 0.24059103 0.11098192
000120 ad 43 d3 bc f1 54 1a 3c 55 d5 91 3e 52 b0 a7 3d
       -0.025789106 0.009419666 0.28483072 0.08187927
000130 d9 3f 7c 3e d9 ed c3 bd 18 db 9d be ad 1e f1 bd
       0.24633731 -0.0956685 -0.30831218 -0.11773429
000140 09 d0 e9 3d f2 8e 57 3e 69 7b e2 3d b2 86 2e be
       0.11416633 0.21050623 0.11058695 -0.1704357
000150 2c d3 88 be 1c 37 94 be 07 6c 13 3e 45 96 95 be
       -0.2672361 -0.28948295 0.14396678 -0.2921621
000160 cc 6a d3 3d 86 82 f3 3d 9d ee 90 be 64 0a 03 be
       0.10323104 0.1189013 -0.28307047 -0.12796932
000170 40 90 65 3d e9 ea a9 3e 6a fa 46 3e 58 95 36 be
       0.05604577 0.33187035 0.19431463 -0.17830408
000180 11 b9 77 3e 47 89 d4 3d 25 2f d6 3c 73 d5 1c be
       0.24191691 0.10377746 0.026145527 -0.153158
000190 3e a5 a8 b9 b8 d8 3f be be af d4 3d 15 86 8b 3d
       -0.00032166572 -0.18735015 0.10385083 0.068126835
0001a0 62 78 41 3e b1 36 dd bd 0f cb 67 3e 1f 88 07 bd
       0.18893579 -0.10801447 0.22636054 -0.0330888
0001b0 98 ae 1e 3e 73 e5 cc 3d 74 5d 79 3d 31 7a 54 be
       0.1549629 0.100047015 0.06088014 -0.20749737
0001c0 95 af 87 3d ac 3f 00 be 93 77 0a 3d 84 72 30 be
       0.066252865 -0.12524289 0.03380544 -0.17231184
0001d0 46 f0 8a be 07 14 cb 3d 79 0f 0a be b2 c9 25 3d
       -0.2713644 0.09915929 -0.13482465 0.040475555
0001e0 8b c0 6e be 13 2f 99 3e 18 3a 79 be fc cc d1 be
       -0.23315637 0.29918727 -0.24338567 -0.40976703
0001f0 e0 47 8e 3e dd 38 9b bd 90 37 a7 3e 05 ca 0f bd
       0.2778921 -0.07579205 0.32659578 -0.03510477
000200 7a 6b b3 bd e1 10 6f be 02 bb 0c be fc bc de 3d
       -0.08760734 -0.23346283 -0.13743213 0.1087589
000210 88 a2 51 be bb f9 87 bb 29 85 33 bc 57 82 1a 3d
       -0.20472157 -0.0041496432 -0.010957041 0.037721958
000220 72 62 26 3d ba b0 c3 be 35 c6 36 3e 31 42 8b 3d
       0.04062123 -0.3822077 0.17849047 0.067997344
000230 76 1c 04 3c bf 67 25 be e4 48 37 3c 2b 18 86 3e
       0.008063426 -0.16152857 0.011186812 0.26190314
000240 0a b6 83 3e fa 18 80 3d 61 55 ec 3d d1 fe 8e be
       0.25724822 0.06254764 0.11539722 -0.27928784
000250 ae bd 06 3e 13 46 2a bc e5 34 1e be a9 ab a7 be
       0.13158295 -0.010392684 -0.15449865 -0.32748154
000260 22 6c 36 be f8 28 13 3e fe 16 82 3e 58 c1 86 3e
       -0.17814687 0.14371097 0.25408167 0.26319385
000270 59 9c a2 be 31 e7 0e be 24 e9 ae 3e db ab c2 3d
       -0.3175991 -0.1395538 0.34162247 0.09505435
000280 28 c5 1b 3e 0f b3 80 3a d7 97 8a 3e 03 39 d6 bc
       0.15211928 0.0009818989 0.2706897 -0.026150232
000290 55 d3 b4 3d 30 44 99 be 9b 91 39 3e 5f 5f f8 3d
       0.08829371 -0.29934835 0.1812195 0.121275656
0002a0 9f 8e e5 bd 42 7d 69 be 84 5c 59 3e af 78 17 be
       -0.112088434 -0.22801688 0.21226698 -0.14792131
0002b0 67 a5 99 3e c1 52 90 be f6 64 a6 3e a2 00 22 3c
       0.30009004 -0.28188136 0.32498902 0.009887846
0002c0 4a 28 80 be 52 39 1e be de 24 13 3d 4f bb 8c 3e
       -0.25030738 -0.15451553 0.03592383 0.27486655
0002d0 a8 d8 b0 be 3a c7 87 be 71 e0 5a 3e 42 ac e8 3c
       -0.34540296 -0.26519185 0.2137468 0.028402451
0002e0 72 8a 3e 3d 76 13 a9 bd e2 e2 26 be 86 3a 96 3e
       0.04651875 -0.08255665 -0.16297486 0.29341525
0002f0 9a 60 31 3e 8d db 40 be 5b 1a ef 3d 25 67 39 3e
       0.17322007 -0.18833752 0.11674949 0.18105753
000300 1a 77 23 3e ed 1e 78 be 8a 87 9b bd 20 9c 73 bd
       0.15963402 -0.24230547 -0.075942114 -0.059475064
000310 a8 d3 9e be 46 d8 c0 3e b6 41 1b 3d 75 d9 11 3e
       -0.31020856 0.37665004 0.037904464 0.1424311

onnx::LSTM_110 f4 [1, 200, 50]
000000 cb 83 5f bd 85 5b 11 be a5 a8 0c be 87 44 62 3e
       -0.054569047 -0.14195068 -0.13736208 0.22096454
000010 14 f3 1d bd 14 27 48 be a3 0b 5c be f0 99 68 bd
       -0.038561895 -0.19546157 -0.21488814 -0.05678743
000020 e7 3a 7f 3d db eb 8e bd 12 4e 9c 3d 9a 20 4a be
       0.062312033 -0.069785796 0.07632078 -0.19738999
000030 be 23 88 3c 73 1a c1 3c bf e8 a8 3c 1c c6 f0 bb
       0.016618606 0.023572182 0.020618794 -0.007347835
000040 f8 40 98 3c a0 e0 d4 bc 6a 4d 39 be 70 90 93 3c
       0.018585667 -0.025986016 -0.18095937 0.01801321
000050 a6 83 22 bd 2b 7d ec bd 3b 05 dc bc 89 f6 34 be
       -0.03967633 -0.115473114 -0.026857963 -0.1767217
000060 52 ce 6b 3e cb 25 79 3e e6 ab d5 bb fa ba f0 bd
       0.23027924 0.24330823 -0.006520736 -0.11754413
000070 07 ec fd 3b ec 4e 8f bd 3e 54 53 bd 0f e9 0e 3d
       0.007749084 -0.06997475 -0.05159401 0.03489023
000080 33 1b 14 be cd 6c e7 3d 3d e1 dc bd 35 b8 8a 3b
       -0.144635 0.11300049 -0.10785148 0.004233385
000090 44 26 4a bc ab 16 25 3d 74 76 37 3e e5 8a 95 3d
       -0.012338225 0.04030482 0.1791628 0.07301883
0000a0 f3 85 89 bd 6d a6 98 bd 04 40 0c bc ca e6 0c bd
       -0.06715002 -0.07453618 -0.008560184 -0.034399785
0000b0 f7 33 ba bd 22 b4 1e bd b8 93 2f be 61 53 5d 3c
       -0.09091943 -0.038746007 -0.17146194 0.013508649
0000c0 38 df 22 3e e8 72 1b be 48 eb eb bd c7 08 0d be
       0.15905464 -0.15180552 -0.11519486 -0.1377288
0000d0 2b 40 3b be ab e2 22 3e 7b af 9b 3e 52 3b 7d bd
       -0.18286197 0.1590678 0.30407318 -0.06182415
0000e0 c0 63 10 be 72 7d 68 3e b5 0b 95 3e 57 05 55 3a
       -0.14100552 0.22704104 0.29110494 0.0008126101
0000f0 94 16 b8 3e b7 1e ab bd 2b 91 c5 3d ca 5d 59 3e
       0.35954726 -0.08355468 0.09646829 0.21227184
000100 ec ee 40 be 9c 16 b2 3d c2 f6 69 be 86 6c 4a 3e
       -0.18841141 0.08695719 -0.22848037 0.19767961
000110 97 db d1 bd 8b 57 33 bb 60 cf d7 3d 6e 2d 1e be
       -0.102469616 -0.0027365412 0.105376005 -0.15447018
000120 d7 98 f9 3d 5c 7b 83 3d 1b 3d 14 3e a7 63 8d 3e
       0.12187355 0.06420013 0.14476435 0.2761509
000130 cc bf 4f be ef be 49 be ad 7e 27 be c0 40 d3 bd
       -0.20288008 -0.19701742 -0.16356917 -0.103150845
000140 e7 77 5a 3d 2d a4 39 be 4a 0e d4 bc 74 f6 9f 3e
       0.053337004 -0.18129034 -0.02588572 0.31242716
000150 cd b6 99 be b7 f9 1b be e5 71 9c be 04 5f 83 bd
       -0.30022278 -0.15231977 -0.30555645 -0.06414607
000160 25 ca f5 3d d7 37 4f be b8 79 73 be ac ff 43 bd
       0.12001447 -0.20236145 -0.23776901 -0.04785125
000170 36 c6 94 3e 5b 10 88 be 97 ae 11 be 4a 80 72 3e
       0.29057473 -0.26574978 -0.14226757 0.23681751
000180 8f 5b e6 bd e2 f9 76 bd 0c 4c c1 3d 21 cc bb bd
       -0.11247932 -0.0602969 0.09438333 -0.09169794
000190 a8 a7 8d bd 29 d5 42 3b 46 ed 58 3d 95 eb 07 3e
       -0.069167435 0.0029729104 0.052960657 0.13273461
0001a0 ef 63 c6 3d 42 d9 1e be 6e 89 6c be 60 8e e8 bb
       0.096870296 -0.15512565 -0.230993 -0.0070970505
0001b0 ba 80 97 bd bf 29 f4 bd bc 6a 58 bd ee e9 f5 3c
       -0.073975995 -0.11922025 -0.052836165 0.030018773
0001c0 38 7a 88 3d cd f8 26 3e 9e 64 06 3e 4b de b5 3d
       0.066639364 0.16305847 0.1312432 0.0888029
0001d0 5e 52 e2 3c d0 f2 5b 3d a1 b8 dc bd 97 38 0f 3c
       0.027627166 0.05369836 -0.10777403 0.008741519
0001e0 33 42 07 3e fa c1 49 be d7 01 f7 bd d0 b8 6e bd
       0.13208847 -0.19702902 -0.12060898 -0.05828172
0001f0 35 4c 55 bd 6f db 38 3e 12 0b 5c be 56 ca 09 be
       -0.05207463 0.18052457 -0.21488598 -0.13456091
000200 fc e4 a2 3d fb cf 37 be 16 81 10 bd fc 2d 94 bb
       0.079538316 -0.17950432 -0.035279356 -0.0045220833
000210 35 b4 9a bd 61 e0 5a 3e c5 58 45 3d 4c 19 37 3d
       -0.07553903 0.21374656 0.04818036 0.04470186
000220 ff a1 98 bd 69 f3 ff bd a2 4e 30 3e 73 7d 24 be
       -0.07452773 -0.12497599 0.17217496 -0.1606348
000230 f7 53 94 bd f5 f2 76 bd 4b e7 46 3e 97 21 2a 3d
       -0.072425775 -0.060290296 0.19424169 0.04153594
000240 93 c6 45 3d a9 8a 19 bd 5c 7f 41 3c 87 a7 53 be
       0.04828508 -0.037485752 0.01181015 -0.20669375
000250 3d c0 16 3e 1c 85 05 bc 6c ff be 3d 58 ed 4b 3e
       0.1472177 -0.0081494115 0.093260616 0.19914758
000260 92 8b 81 3d d5 1a 1d 3e cb 69 5e 3d de 76 1d be
       0.06325449 0.15342267 0.05430011 -0.15377375
000270 ab f3 1e be c7 5a 33 3e 61 15 d4 bd d4 79 2f be
       -0.1552264 0.17515098 -0.1035564 -0.17136317
000280 5a 61 d0 3c 2a 59 08 be ce 55 a4 3d 39 07 f4 3d
       0.025437046 -0.13315263 0.080241784 0.1191544
000290 61 a9 4f be 23 84 2d 3e 0b 06 22 be 23 19 ab 3d
       -0.20279457 0.16944937 -0.15822618 0.08354404
0002a0 00 d9 b5 3d 60 0a 34 bc c6 fe 25 3c 90 50 d2 3d
       0.0887928 -0.010988802 0.0101315435 0.10269272
0002b0 65 cb 93 3c 64 01 19 bd 1e a4 d1 3d e9 81 44 bd
       0.018041322 -0.03735484 0.10236381 -0.047975454
0002c0 55 18 a2 bd 97 d3 cc bd 65 7d 8d bd c3 d0 d9 3d
       -0.07914797 -0.10001295 -0.06908683 0.10635521
0002d0 42 bd b1 3d e4 1f 76 bd 96 b0 ff bc 9a 88 24 3d
       0.08678676 -0.060089007 -0.031212132 0.040169336
0002e0 20 bc 09 bd 2d 3e 5c bd 5d bb 88 3d 99 08 a4 bd
       -0.033626676 -0.053770233 0.06676362 -0.080094524
0002f0 46 9b 13 3a 91 0e 0f bd aa 91 7a bd 4b c5 ab bc
       0.00056307425 -0.034926 -0.061174072 -0.0209681
000300 d6 de b8 bd 68 e2 1e be ce 6b 42 bd 4a 65 0a 3e
       -0.090268776 -0.15516055 -0.04746609 0.13515201
000310 f8 e0 44 39 e2 4b 12 3c e9 f1 a8 bd a3 23 36 be
       0.00018775824 0.008929225 -0.08249266 -0.17787032
000320 c3 30 d5 bc 22 7e a1 bc b9 9b b3 bd 2f a5 87 3e
       -0.026024228 -0.019713465 -0.08769936 0.26493213
000330 7a 6d 2d 3e e9 d7 69 be 4b e9 b0 be 75 0f 76 3d
       0.16936293 -0.2283627 -0.34552988 0.060073335
000340 56 65 e8 3d 90 0e a6 3c bd e2 92 3e 65 74 3d be
       0.11347453 0.020270616 0.28688613 -0.18501432
000350 8e 6e d0 3c 47 a1 7b 3e 6a 17 86 bd 81 5b 61 3b
       0.025443342 0.24573241 -0.06547435 0.0034386816
000360 a3 66 cc bd 5f dc 0b 3e 9f b7 d2 bd e8 4b 63 bd
       -0.09980514 0.13658284 -0.10288929 -0.05549231
000370 76 98 f9 bc c7 27 92 be 85 8e 78 3d b0 76 97 3d
       -0.030468207 -0.28545973 0.060682792 0.07395685
000380 08 bc f5 3d 57 ca c9 3d 71 18 a0 be de c1 4d be
       0.11998755 0.098530464 -0.31268647 -0.20093486
000390 09 87 2e bd fd c7 ab bc 0f 5d 24 3e a8 3f 78 be
       -0.04260925 -0.020969385 0.16051124 -0.24243033
0003a0 3b 10 35 3b fc e8 1e 3e 15 14 14 be ad 17 24 be
       0.0027628082 0.15518564 -0.14460786 -0.16024657
0003b0 b3 80 b9 bd 24 2f 7d bd 52 31 ab 3d f3 ce 85 be
       -0.090577506 -0.061812535 0.083590165 -0.26134452
0003c0 2a 54 5e be 45 04 48 be f7 42 6e 3e 69 e5 8e be
       -0.21711794 -0.19532879 0.23267733 -0.279094
0003d0 12 8d 34 be 39 97 0a 3e 48 e7 51 be 30 7f ed bd
       -0.17631939 0.1353425 -0.20498383 -0.11596525
0003e0 6f 9e 06 3e 01 96 0c be 01 cd 18 3d df 6d 3b 3d
       0.13146375 -0.13729097 0.037304882 0.045759078
0003f0 c2 dd 95 bd 3b 93 91 3d b2 5d 0b 3e 7f e7 0e 3d
       -0.073176876 0.0710816 0.1360996 0.03488874

onnx::LSTM_111 f4 [1, 400]
000000 bc 59 a1 3d f4 bc a1 3e 51 f0 9e bc 3a c1 89 3d
       0.078784436 0.31589472 -0.019401701 0.06726308
000010 51 b6 5b 3c 9f 20 26 3e 08 33 3b 3e 19 63 cf 3c
       0.013410167 0.16223381 0.18281186 0.025315808
000020 31 98 a5 3d a6 b3 89 bd 0a c2 ee 3d 55 4b b6 3d
       0.08085669 -0.06723718 0.11658104 0.08901087
000030 78 7b 2b 3e 4e c5 b4 3d 14 30 74 bb b7 a1 a9 bc
       0.16746318 0.088266954 -0.0037260102 -0.020706994
000040 45 0d 51 3e f0 eb 94 3d e5 32 8e 3d 02 33 71 3e
       0.20415218 0.07271564 0.06943301 0.23554614
000050 67 ea 6f bd 4d d6 19 3e 8b d9 61 3d f3 60 6e 3e
       -0.058573153 0.15023156 0.055139106 0.2327917
000060 f8 36 2c 3e 9a 7f a0 3d 12 a8 68 3e 08 8e 26 3d
       0.16817844 0.07836838 0.22720364 0.040662795
000070 26 1c ff 3c bf 2a 04 bd 58 22 02 3e ab 1f 46 3e
       0.031141352 -0.03226733 0.12708414 0.19348018
000080 29 d5 77 3e 08 64 d9 3d dc 53 22 3d fa f4 aa bd
       0.24202408 0.106147826 0.039630756 -0.08347507
000090 bf 7c 00 be 52 f9 b2 3d ba 16 13 bd 6f 2b 45 3d
       -0.12547587 0.0873896 -0.035910346 0.048137125
0000a0 06 f4 e6 3d 88 36 66 3d 66 fd 3a 3d 67 4e d6 3d
       0.112770125 0.05620435 0.045651816 0.10464173
0000b0 af 02 24 3e 03 46 a5 bd 45 69 7a 3d c3 03 c9 3d
       0.16016649 -0.08069994 0.06113555 0.098151706
0000c0 fc 1b b9 bd ef 6a 34 3d e5 71 3c 3e e2 23 9f 3d
       -0.09038541 0.044047292 0.18402822 0.07770516
0000d0 a7 e2 2e 3e b9 48 ee bd be 17 1c 3d 56 96 00 3e
       0.17078649 -0.116349645 0.03810858 0.12557349
0000e0 15 b5 1a 3e 40 b2 84 bc 0b a9 3a 3e bd 9c af 3c
       0.1510814 -0.016198277 0.18228547 0.021437043
0000f0 8c 46 4c 3d 59 a6 0f 3e 01 85 30 3e 58 f5 bd 3d
       0.049871966 0.140283 0.17238237 0.09275311
000100 ae 90 2c 3e cb 14 2c 3e 8a 6a 03 bd 13 f9 0a 3b
       0.16852066 0.16804807 -0.032084025 0.0021205589
000110 17 9e b7 3d 80 69 50 3d 57 2b 87 bd 29 4d 00 3e
       0.089657 0.050881863 -0.06600063 0.12529434
000120 1d 78 22 3e 95 7b 12 3e 07 44 b0 3d d7 c6 c7 bd
       0.15866132 0.14304955 0.08606725 -0.097547226
000130 bf 0a 66 3e 1a e2 f8 3d c9 84 cd bd d4 7e a6 3d
       0.22465037 0.121525005 -0.100350924 0.08129659
000140 56 aa 9c 3d 41 46 9e bc 32 74 12 3e c2 aa af 3c
       0.076496765 -0.019320609 0.14302137 0.021443728
000150 22 5a a7 3d ef 68 8f bd 1a 70 78 bc 94 f9 52 3b
       0.08171488 -0.07002436 -0.015163446 0.0032192217
000160 e8 53 aa bd 0b bf 54 3d 5d e0 4e 3e 36 0f 4f 3e
       -0.08316785 0.051940005 0.20202775 0.20220646
000170 08 9f b8 bd 76 d5 d1 3c 18 9b 84 bd 5d 70 b7 bd
       -0.09014708 0.025614481 -0.06474894 -0.089569785
000180 a3 e5 74 3e e3 1f e2 3d 78 12 32 3e cb 91 8a 3d
       0.23915724 0.11041238 0.17389858 0.06766089
000190 2b 9c 45 3d 18 2e aa 3d 4e f1 a0 3d 35 1e 92 3d
       0.048244637 0.08309573 0.07858525 0.07134668
0001a0 b8 0c a0 bd b6 d8 16 bd 6b b9 19 3e 86 aa 15 3e
       -0.07814926 -0.036827765 0.15012138 0.14615831
0001b0 f9 43 8f 3d ce e0 25 3e 9b 0b 91 3d 1c 8b 38 3d
       0.06995387 0.16199037 0.07082292 0.04505454
0001c0 a8 4b 5e be 2b 0c 0c 3e 15 b3 36 bd a2 03 1e 3d
       -0.21708548 0.13676517 -0.04460438 0.038577683
0001d0 4c 05 af 3b 5d 6a 11 3e 2a 2e 08 3d b2 f1 ec bd
       0.0053412076 0.1420073 0.03324715 -0.11569537
0001e0 23 20 34 3c fd c8 9d 3d e0 0f 46 3d 23 fc 46 be
       0.01099399 0.07704351 0.048354983 -0.1943212
0001f0 58 12 80 3c eb 75 57 3e 89 67 2b bc a0 70 2b bd
       0.015633747 0.21041076 -0.010461696 -0.041855454
000200 64 b8 b8 3d f0 1a 84 3d bf 10 01 be f1 ae 92 bc
       0.09019545 0.064504504 -0.12604044 -0.017905684
000210 a1 dd 03 3e 9f 07 14 3e c3 b2 50 3e 1a c6 d3 3a
       0.12877513 0.14456032 0.20380692 0.0016157061
000220 12 b5 0a 3e 9f 5d d8 bd e8 09 89 bc 72 7a 0d 3e
       0.13545635 -0.10564732 -0.016728356 0.1381624
000230 15 c2 bf 3c cf fe e9 3d d8 7d e0 3d 8f cf 35 3e
       0.023407975 0.11425554 0.10961503 0.17754959
000240 e0 35 2a 3b 2d 85 33 3e f7 70 00 be 06 8e 6a be
       0.0025972053 0.17531271 -0.12543093 -0.2290574
000250 8c c0 75 3b b0 98 c3 bc ef 14 ec 3c b2 fa 38 3d
       0.00374988 -0.023876518 0.028818576 0.045160957
000260 50 45 43 be 8e e4 cf 3d 77 99 6e bd 05 19 d4 bd
       -0.1906941 0.10151015 -0.058251824 -0.103563346
000270 d7 ee b0 bc 6d 75 19 3e f6 e5 a4 3d e1 21 dd bd
       -0.021598263 0.149862 0.08051674 -0.107974775
000280 05 43 ff 3d ce b5 35 be c6 f0 99 3c 7b bc 22 3e
       0.12463955 -0.17745134 0.018791568 0.15892212
000290 dc 5f 10 3d a7 e2 25 3d 35 e0 51 ba ec 46 15 3e
       0.03524767 0.040499356 -0.0008006127 0.14577836
0002a0 df f7 66 3c ff ea 34 bc 5b 18 1b be 25 0b 21 be
       0.014097183 -0.011042356 -0.1514601 -0.15726908
0002b0 6c a2 9b ba 84 ec fe 3d 64 cb 27 3e 23 c0 12 3e
       -0.0011873967 0.124474555 0.16386181 0.14331107
0002c0 2f 6d 29 bd 4e 5d 77 3d 51 92 02 be dc 22 0d be
       -0.04136389 0.060391717 -0.12751128 -0.13782829
0002d0 43 92 a3 bd 83 0f c0 bd 51 92 04 3e 27 f5 16 3e
       -0.079868816 -0.093779586 0.1294644 0.14741956
0002e0 66 f2 2f bd 01 bb 0a be b1 52 4e bd ca 72 d9 bd
       -0.04295578 -0.13547899 -0.05037183 -0.106175974
0002f0 07 96 68 bd ec b9 ae 3c e4 90 3f be 8d 7f de bd
       -0.056783702 0.021328889 -0.18707615 -0.10864172
000300 04 d9 66 3c 53 2d 81 bd 4f 85 19 be 01 8a 7f 3c
       0.0140898265 -0.06307473 -0.1499226 0.015596868
000310 43 9c 27 bd be c6 cd bd e7 c4 0f 3e 95 5c 7b bd
       -0.040920507 -0.10047673 0.14039956 -0.06136759
000320 84 7f 56 3e e9 f4 8e 3d f1 68 95 bc 9e 9b 96 bb
       0.20947081 0.06980307 -0.018238517 -0.0045961877
000330 37 98 89 3e d9 e2 e7 3d 7c 3b cc bc aa 14 fc bc
       0.26873943 0.11322565 -0.024930708 -0.030771572
000340 e2 bf ba 3d 6f 16 b0 3d fd 01 32 bc 23 d1 34 3e
       0.0911863 0.08598029 -0.010864732 0.17657904
000350 f0 af a8 3d 2f 21 9d bb cb 81 46 3e c7 78 26 3e
       0.082366824 -0.0047952156 0.1938545 0.1625701
000360 60 3b 81 3d 20 60 b2 3a 3a 79 9e 3d 8c 5f 57 3d
       0.06310153 0.001360897 0.07737966 0.052581355
000370 1c 4a fd bc a4 36 1d 3d 1f 1e 3f 3e e5 38 e6 3d
       -0.030919127 0.038382187 0.18663834 0.112413205
000380 8a 88 c2 3d ec 82 f0 3d 40 56 d4 3d 02 87 0f 3d
       0.09498699 0.11743721 0.103680134 0.035040863
000390 c9 13 8e 3c bb 9e 18 3e 1a e3 59 3e ad c3 cd 3d
       0.017343419 0.14904301 0.21278039 0.10047088
0003a0 48 74 16 3e 0d 2f 62 3d 25 d1 aa 3d ba 4f eb bd
       0.14692795 0.055220652 0.083406724 -0.11489816
0003b0 be 3c 08 3e 00 d5 3c 3e dc 1a dd 3d a5 db a5 bb
       0.13304421 0.18440628 0.10796139 -0.005061584
0003c0 49 24 02 3e 75 d8 8c 3c 7c 56 cf bc cf 42 cc 3b
       0.12709154 0.017193059 -0.025309794 0.00623355
0003d0 ad c7 ba bd 9b 01 e6 bd 48 d6 56 3e 14 55 50 3e
       -0.091201164 -0.11230775 0.2098018 0.20344955
0003e0 d4 c4 cd 3d c4 0b a8 3d e9 e4 21 3e 69 c2 7d 3e
       0.100473076 0.08205369 0.15809979 0.24781193
0003f0 0a 2f 0d 3e d1 fb b2 3d 1d 9b 6f 3e 23 bb c0 3d
       0.13787475 0.087394364 0.23399015 0.094106935
