article6_Make_ONNX_model_trainable_on_device/onnx_training_cpp_demo_classification/inference_model.onnx (onnx, 45734 bytes, 5 tensors)

fc.weight f4 [3, 50]
0	0x3e1195b4	0.14217263
1	0xbe6126f5	-0.21987517
2	0xbe6acca5	-0.22929628
3	0x3e48c606	0.1960679
4	0xbd62235d	-0.055209506
5	0x3ddca209	0.10773093
6	0x3e4ad2e1	0.19807006
7	0x3b659646	0.0035032197
8	0x3bfeb779	0.0077733365
9	0xbcde5847	-0.027141703
10	0xbe08f9ab	-0.13376491
11	0x3e6a4937	0.22879492
12	0x3ddc722f	0.10763966
13	0x3e55dad4	0.20884258
14	0xbe51040d	-0.20411702
15	0xbd421567	-0.047383692
16	0xbdaabe79	-0.08337111
17	0x3de9b710	0.114118695
18	0x3be6b100	0.007040143
19	0x3d23d0e7	0.039994147
20	0xbe633a83	-0.22190289
21	0xbe0eed6c	-0.13957757
22	0xbe4e1a0e	-0.20127127
23	0xbe41d665	-0.18929441
24	0x3deffbb3	0.1171793
25	0xbd179eb0	-0.03701657
26	0x3e219b47	0.1578189
27	0xbdd88c55	-0.10573641
28	0xbd924f21	-0.07143999
29	0x3d8a9624	0.06766918
30	0xbd787d46	-0.060666345
31	0x3c4fc8ea	0.012682179
32	0xbdd66c36	-0.10469858
33	0x3e27ffcb	0.16406171
34	0xbc6c6226	-0.014427697
35	0x3e06dbd8	0.13169801
36	0x3da50595	0.08057705
37	0x3e04c0d8	0.12964189
38	0xbbec9747	-0.007220182
39	0x3e87c4d6	0.2651736
40	0xbe414ef7	-0.18877779
41	0xbdd35c02	-0.103202835
42	0xbdc7d117	-0.097566776
43	0xbe70a9ad	-0.23502226
44	0x3e2e34cb	0.17012326
45	0xbe232a04	-0.15933996
46	0x3c8a9b78	0.016919836
47	0x3dfdd8b0	0.123948455
48	0xbd37dba0	-0.044887185
49	0xbde8abe6	-0.11360912
50	0xbde41e0e	-0.11138545
51	0x3e000ee3	0.12505679
52	0x3c59b004	0.013286594
53	0xbe368fb2	-0.17828253
54	0x3d20fbfe	0.03930282
55	0xbe48f594	-0.1962493
56	0xbda08821	-0.078384645
57	0x3d68aab8	0.056803435
58	0xbe010f02	-0.12603381
59	0x3e85460c	0.26030004
60	0x3e168777	0.14700113
61	0xbd97950e	-0.07401477
62	0xbd74ee61	-0.05979765
63	0xbd897b92	-0.06713022
64	0x3e715bdf	0.23570202
65	0x3e06ab7f	0.13151358
66	0xbdba0096	-0.09082143
67	0xbe3e9e47	-0.18615066
68	0xbe4e38d9	-0.20138873
69	0xbce763d4	-0.028245844
70	0x3dd16860	0.10224986
71	0x3ccd5483	0.025064712
72	0x3da4fb00	0.08055687
73	0x3db64a80	0.089009285
74	0xbe7bb8ce	-0.24582216
75	0x3c60b312	0.013714569
76	0xbdfe130e	-0.12405978
77	0x3e4dffa1	0.20117046
78	0x3e57d00a	0.21075454
79	0xbdd62c4b	-0.10457667
80	0x3e0f1421	0.13972522
81	0x3d62360a	0.055227317
82	0x3e15c221	0.14624836
83	0xbda4501b	-0.080230914
84	0x3d862add	0.06551144
85	0xbe86f15a	-0.26356012
86	0xbe07d58a	-0.13265052
87	0xbd5e2c7c	-0.054241642
88	0x3e758b91	0.23979022
89	0x3d4fb96e	0.05071395
90	0x3dfc6038	0.1232304
91	0x3e06994a	0.13144413
92	0x3e2f9993	0.17148428
93	0x3d01c5e4	0.031682864
94	0xbe25a30f	-0.16175483
95	0x3d85bc7c	0.06530091
96	0x3e043567	0.12910996
97	0xbdddff43	-0.10839703
98	0xbc81590e	-0.015789535
99	0x3e657e5c	0.22411484
100	0xbe2c8e82	-0.16851237
101	0x3e16fa90	0.1474402
102	0x3d0827c5	0.033241052
103	0xbe36613c	-0.1781053
104	0x3dba5901	0.090990074
105	0x3d9e2288	0.0772143
106	0xbd2fae84	-0.04289104
107	0x3c44829e	0.011994032
108	0xbe2d0686	-0.1689702
109	0xbc0842aa	-0.008316675
110	0xbe2b070e	-0.1670191
111	0x3d37b829	0.044853363
112	0x3e2fab76	0.17155251
113	0xbe3c023e	-0.1836023
114	0x3c890269	0.016724782
115	0xbe6926fa	-0.22768775
116	0x3da392ec	0.079870075
117	0xbe438613	-0.19094114
118	0xbe7c1ce8	-0.24620402
119	0x3d6a3732	0.057181545
120	0x3e6e9e0d	0.23302479
121	0xbe7641c1	-0.2404852
122	0x3bd8ef2d	0.006620309
123	0xbd8a75fd	-0.06760786
124	0x3e0e7ae8	0.13914073
125	0xbe146b38	-0.14494026
126	0x3d0514a2	0.03249038
127	0x3e15f9f3	0.1464613
128	0xbd622416	-0.055210195
129	0x3cf67934	0.030087091
130	0xbe407879	-0.18795957
131	0xbe3b04ad	-0.18263502
132	0x3d14ee64	0.03636016
133	0xbe5147b5	-0.2043751
134	0xbc82e6e8	-0.015979245
135	0xbe0f239f	-0.13978432
136	0xbe3e81e7	-0.18604241
137	0xbe2fac3d	-0.17155547
138	0xbdf41ba0	-0.119193316
139	0xbe8996ab	-0.26872763
140	0xbe866148	-0.26246095
141	0xbe6364e9	-0.22206463
142	0x3ceeae52	0.029135857
143	0xbb1b6e69	-0.0023716933
144	0xbc75ee36	-0.015010407
145	0x3df7342e	0.12070499
146	0xbe6d0073	-0.23144703
147	0x3b4a48ec	0.0030866219
148	0xbe375c3b	-0.17906277
149	0xbd8f69a2	-0.0700257

fc.bias f4 [3]
0	0x3db777d8	0.08958405
1	0x3dbca670	0.09211433
2	0x3e0524b3	0.13002281

onnx::LSTM_109 f4 [1, 200, 1]
0	0x3caa7980	0.020809889
1	0xbe1f414c	-0.15552253
2	0x3de57945	0.11204771
3	0x3e3f9af6	0.18711457
4	0x3dbe17b2	0.09281863
5	0x3c8322d9	0.016007828
6	0x3c1d1e49	0.00958974
7	0x3d8672cf	0.06564867
8	0xbe013cec	-0.12620896
9	0x3db9f34f	0.090796106
10	0xbd4d4bc4	-0.050121084
11	0x3c9edb94	0.019391812
12	0xbc255b68	-0.010092594
13	0x3d0c426a	0.034243025
14	0x3d972887	0.07380777
15	0xbdacebf7	-0.08443444
16	0x3d952ea6	0.07284288
17	0x3defe056	0.117127106
18	0xbdbe56b6	-0.092938825
19	0x3bdeeee7	0.0068033817
20	0x3d4a6a62	0.04941786
21	0x3d152de8	0.036420733
22	0xbe84af16	-0.2591483
23	0x3dd3a6b1	0.10334528
24	0x3c7d0265	0.015442465
25	0xbd96a324	-0.07355335
26	0x3d81061a	0.06299992
27	0x3e4417ec	0.1914975
28	0x3e47e418	0.19520605
29	0x3e060038	0.13086021
30	0x3e3aac17	0.1822971
31	0xbd704f80	-0.058669567
32	0x3df1c895	0.11805836
33	0x3e63ed15	0.22258408
34	0xbd93508a	-0.07193096
35	0x3e764028	0.24047911
36	0xbd168666	-0.036749266
37	0x3e43b7af	0.19113038
38	0xbc092026	-0.008369481
39	0x3e2f0532	0.17091826
40	0xbe531eba	-0.2061719
41	0xbe42b42b	-0.19014041
42	0x3d78d51e	0.06075012
43	0x3dfebf3c	0.12438819
44	0x3dc17a8d	0.09447203
45	0x3d1d65fb	0.038427334
46	0x3d257fcc	0.04040508
47	0x3d0f8ae8	0.03504458
48	0x3b361c66	0.0027787923
49	0x3c1dee50	0.009639338
50	0xbd51ecb8	-0.051251143
51	0xbe6539c8	-0.22385323
52	0x3e21c407	0.15797435
53	0x3d82b51e	0.063822016
54	0x3d8abc3c	0.06774184
55	0x3cc80dd7	0.024420662
56	0xbe6bbd2d	-0.23021384
57	0xbdcfa880	-0.10139561
58	0xbd93da8f	-0.07219421
59	0x3d46cc30	0.048534572
60	0xbdcad072	-0.09903039
61	0x3d5aba49	0.05340031
62	0xbe1b04a9	-0.15138496
63	0x3ce7bdfe	0.028288838
64	0x3e6e2d4a	0.23259464
65	0x3e573e97	0.2101997
66	0xbd2c9b36	-0.04214021
67	0x3da62bb8	0.081138074
68	0xbe56ffce	-0.20996019
69	0x3dc946f8	0.09827989
70	0xbc0a5339	-0.008442693
71	0x3e207065	0.15667875
72	0xbdd36dde	-0.1032369
73	0xbdd72f74	-0.10507098
74	0x3e3f5928	0.18686354
75	0x3e130284	0.14356428
76	0x3e464ff0	0.19366431
77	0x3e31fc9c	0.17381519
78	0x3e6a8cda	0.22905293
79	0x3dc18208	0.094486296
80	0x3def23b8	0.11676735
81	0xbab77450	-0.0013996456
82	0x3da02196	0.07818906
83	0x3bf9e348	0.007625971
84	0xbc48aae2	-0.012247773
85	0x3d4e2b0e	0.05033403
86	0xbe61f0b8	-0.22064483
87	0x3dd42b0f	0.10359775
88	0xbd461078	-0.04835555
89	0x3d359cc9	0.044338975
90	0xbe83ab78	-0.25716758
91	0xbe06d0af	-0.13165544
92	0xbe0ff9de	-0.1406016
93	0x3db6824e	0.089115724
94	0x3e55c145	0.20874508
95	0x3e8598e5	0.26093212
96	0x3db148e4	0.08656481
97	0x3dd3cc73	0.1034173
98	0xbc34576f	-0.011007174
99	0xbe7acfd9	-0.2449335
100	0x3d6124ee	0.05496686
101	0xbe00ed27	-0.12590466
102	0x3ba2329e	0.0049498817
103	0x3d9452c5	0.072423495
104	0x3d92583a	0.07145734
105	0x3c7a81ff	0.015289783
106	0xbe3ad59f	-0.18245552
107	0xbe021b32	-0.12705687
108	0xbdc0b0c7	-0.094087176
109	0x3d267945	0.040642995
110	0xbd0e3738	-0.03472063
111	0x3d89a907	0.067216925
112	0xbdabe3d9	-0.08393068
113	0xbddd991d	-0.1082022
114	0x3dfdb7f4	0.12388602
115	0xbc9989ae	-0.018742409
116	0xbcb28141	-0.021790149
117	0x3de67fda	0.112548545
118	0x3cd844bb	0.02639996
119	0xbe09235d	-0.13392396
120	0x3d06ff87	0.032958534
121	0x3c3d5771	0.011556492
122	0xbe2cdae0	-0.16880369
123	0xbd9f8433	-0.07788887
124	0x3e34a57a	0.1764125
125	0xbc7c4e0b	-0.015399466
126	0x3d9a11ef	0.07522952
127	0x3daac9d3	0.08339276
128	0x3b8c7012	0.0042858208
129	0xbd12dfd3	-0.035857987
130	0xbc07931a	-0.008274818
131	0x3d30a599	0.043126676
132	0x3cb1208c	0.021621965
133	0x3d7df498	0.06200084
134	0xbe07a369	-0.1324593
135	0x3e8f1fa3	0.27953824
136	0xbe34f95b	-0.17673247
137	0xbe2c81fa	-0.16846457
138	0x3e30c497	0.17262493
139	0x3e8b8bc9	0.27255085
140	0xbe81b8dd	-0.25336352
141	0x3d2ab498	0.041676134
142	0xbe758095	-0.23974831
143	0x3e194267	0.14966737
144	0x3d8591b6	0.06521933
145	0x3de915e9	0.11381132
146	0x3daa6a5d	0.083210684
147	0x3d7772e9	0.06041232
148	0xbe013f54	-0.12621814
149	0xbe80292d	-0.25031415
150	0x3e696da8	0.22795737
151	0xbe424221	-0.18970539
152	0xbd70c02f	-0.05877703
153	0x3e044027	0.12915097
154	0x3d32c421	0.043644074
155	0x3e000909	0.12503447
156	0x3e0fb499	0.14033736
157	0x3dce23e8	0.10065442
158	0x3d39f4cb	0.04539947
159	0xbe802b43	-0.25033006
160	0xbdad5244	-0.084629565
161	0x3e11b295	0.1422828
162	0xbda170f6	-0.07882874
163	0x3e101280	0.14069557
164	0xbe082850	-0.13296628
165	0x3d29638d	0.041354705
166	0x3d14cefb	0.036330204
167	0x3e61f40c	0.22065753
168	0x3e14ddc5	0.14537723
169	0xbdbf286c	-0.09333882
170	0xbe0edf20	-0.13952303
171	0xbd18ff79	-0.037353013
172	0xbd16d2b1	-0.036822025
173	0xbe79b607	-0.24385844
174	0x3e81deab	0.25365195
175	0x3db6251b	0.08893796
176	0x3dfbf781	0.12303067
177	0xbe099d6f	-0.13438962
178	0xbe3af937	-0.1825913
179	0x3ca69e0c	0.020339034
180	0xbd924e79	-0.07143874
181	0x3d65c49b	0.0560957
182	0xbe3e0e68	-0.18560183
183	0x3e3462f9	0.1761588
184	0xbd1007f7	-0.035163846
185	0x3e177e50	0.14794278
186	0x3dc282d2	0.09497608
187	0x3e5705bd	0.20998283
188	0xbe02d2da	-0.12775746
189	0x3dfdc725	0.123914994
190	0xbc838dcd	-0.016058827
191	0x3d96825c	0.07349083
192	0xbe8e2d91	-0.2776914
193	0xbe1eeea8	-0.15520728
194	0x3e488aee	0.19584247
195	0xbe838197	-0.25684807
196	0x3d8fe391	0.07025827
197	0x3e487629	0.19576325
198	0x3da28216	0.07934968
199	0xbe131e68	-0.14367068

onnx::LSTM_110 f4 [1, 200, 50]
0	0xbd58e98a	-0.052957095
1	0x3c40de61	0.011771769
2	0xbcc5bb97	-0.024137301
3	0xbca92d18	-0.020651385
4	0xbd7fd232	-0.062456317
5	0x3d222ab6	0.039591514
6	0xbe0f8109	-0.14014067
7	0x3d46875e	0.04846894
8	0xbdc01c1e	-0.09380363
9	0xbd6e0479	-0.058109734
10	0x3e333f9d	0.17504735
11	0xbd5ef3ca	-0.054431714
12	0xbe113c13	-0.14183073
13	0x3d9fead7	0.07808464
14	0xbe1b51ef	-0.15167974
15	0xbca8f466	-0.02062435
16	0xbc46f35a	-0.0121429805
17	0x3de89521	0.11356569
18	0xbdcef39f	-0.10105061
19	0xbdf865ad	-0.12128768
20	0xbe0583c7	-0.1303855
21	0xbd048bfd	-0.032360066
22	0x3e67a091	0.22619845
23	0x3c454af6	0.012041798
24	0x3df7dec4	0.12103036
25	0xbd8c1a4c	-0.06840953
26	0x3e52235d	0.20521303
27	0xbe4f54eb	-0.20247237
28	0xbe710222	-0.2353597
29	0x3d53c99a	0.051705934
30	0xbe13487f	-0.14383124
31	0x3d201c7c	0.039089665
32	0x3c328d9d	0.010898021
33	0x3d045f6d	0.032317568
34	0x3e44abef	0.19206212
35	0x3e068732	0.1313751
36	0x3d197e41	0.03747392
37	0xbd283451	-0.041065518
38	0x3a807283	0.0009799752
39	0x3dd3da9f	0.10344433
40	0x3d5fb3ac	0.054614708
41	0x3d609083	0.054825317
42	0x3d745aaf	0.059656795
43	0xbe756552	-0.23964432
44	0x3c84735f	0.016168294
45	0xbe54a36f	-0.2076547
46	0xbdc6597e	-0.09685038
47	0x3dcad7d0	0.09904444
48	0x3dd95b1f	0.10613083
49	0x3dfafaeb	0.1225489
50	0xbde508a3	-0.11183288
51	0x3e50fdd8	0.20409334
52	0xbe0b45c1	-0.13600828
53	0x3dc7604f	0.09735166
54	0xbe194f7f	-0.14971732
55	0x3e39de9f	0.1815133
56	0xbd9f2a05	-0.077716865
57	0x3ca1dffb	0.019760123
58	0xbc24475c	-0.010026779
59	0x3d05949c	0.032612428
60	0x3d9b66e3	0.075879835
61	0x3d82a106	0.06378369
62	0xbe3c70f1	-0.18402459
63	0xbe013488	-0.12617695
64	0x3ddd9b38	0.10820621
65	0x3ac377b8	0.0014912998
66	0xbe0a49ad	-0.13504668
67	0xbe240619	-0.16017951
68	0xbd9b7a7e	-0.07591723
69	0x3d528b93	0.05140264
70	0xbd9c111f	-0.07620453
71	0xbce56084	-0.028000124
72	0x3e1b1e41	0.1514826
73	0xbe2a92eb	-0.16657607
74	0x3e4cf146	0.20013914
75	0xbe61ce73	-0.2205141
76	0x3e142c9f	0.14470147
77	0x3cae67fd	0.02128982
78	0x3d986453	0.0744101
79	0xbbf15d0f	-0.00736583
80	0xbe54c483	-0.20778088
81	0x3e27ca32	0.16385725
82	0xbcd07cff	-0.025450228
83	0x3e14f7b2	0.14547613
84	0x3d4597f4	0.048240617
85	0x3d5bc108	0.053650886
86	0x3b40e51c	0.0029433435
87	0xbc10841c	-0.00882056
88	0xbe07524d	-0.13214989
89	0x3e5328ea	0.20621076
90	0xbce382fe	-0.027772423
91	0x3e087729	0.13326706
92	0x3d875cdb	0.06609508
93	0xbe0ded86	-0.13860139
94	0x3da6e8bd	0.0814986
95	0xbe517c24	-0.20457512
96	0xbdbc8465	-0.0920494
97	0x3e24fdcf	0.16112445
98	0x3b5a1851	0.0033278654
99	0x3e41a5ca	0.189109
100	0x3d2c642e	0.042087726
101	0x3ca9f2a8	0.02074559
102	0xbe4df360	-0.20112371
103	0x3e196e36	0.14983448
104	0xbe10b6d2	-0.1413224
105	0xbdb2f5be	-0.08738278
106	0xbe3fdee2	-0.18737367
107	0x3e24f9c2	0.161109
108	0xbc382e5a	-0.01124152
109	0x3df8b7db	0.12144443
110	0xbd720d46	-0.05909469
111	0xbd9cbab2	-0.07652797
112	0xbdc3978e	-0.09550391
113	0xbceffc5a	-0.029295135
114	0xbdc37df7	-0.0954551
115	0x3db82c6a	0.08992846
116	0xbdff9641	-0.124798305
117	0xbdbde28b	-0.09271725
118	0xbd44b982	-0.048028477
119	0xbc68912c	-0.014194768
120	0xbdb612f6	-0.08890335
121	0xbc105a71	-0.008810625
122	0x3e1fb472	0.15596178
123	0x3cf5cd1c	0.03000503
124	0x3e1a5291	0.15070559
125	0xbc140f93	-0.009036916
126	0x3df27b9c	0.11839983
127	0xbe117a52	-0.14206818
128	0xbba70d4e	-0.0050980216
129	0x3dcb332d	0.099218704
130	0xbdea770e	-0.11448489
131	0x3d17b374	0.037036374
132	0xbda4a6e9	-0.08039648
133	0x3dac36d5	0.08408896
134	0x3e0bd845	0.13656719
135	0x3e269aed	0.16270037
136	0xbd528fc5	-0.05140664
137	0x3d990da4	0.07473305
138	0x3e0261a6	0.12732562
139	0xbd051fbd	-0.03250097
140	0x3e2037df	0.15646313
141	0x3cb338ac	0.02187761
142	0xba48f386	-0.00076656824
143	0x3d35fe28	0.044431835
144	0xbc29d60a	-0.010365972
145	0xbd304ac4	-0.043040052
146	0xbe10d1eb	-0.14142577
147	0x3e13d557	0.14436851
148	0x3dacdcfc	0.08440587
149	0x3d89583c	0.067062825
150	0xbd0f5a93	-0.034998488
151	0x3d9ac33a	0.07556768
152	0xbe098e0a	-0.1343309
153	0x3ca9de73	0.020735955
154	0xbdf9694f	-0.12178289
155	0xbd811bb3	-0.06304111
156	0xbe47c912	-0.19510296
157	0x3e558b44	0.20853907
158	0xbd57b879	-0.05266616
159	0xbda454fc	-0.08024022
160	0x3da31e79	0.079647966
161	0x3dee8e1d	0.116482
162	0xbc4721f1	-0.012154088
163	0x3db2276a	0.08698924
164	0x3dacda85	0.08440117
165	0xbdc6f82b	-0.09715303
166	0xbd66ceaa	-0.056349434
167	0xbe150228	-0.14551604
168	0xbc68c596	-0.014207264
169	0xbd269346	-0.040667795
170	0x3bf55d73	0.0074879467
171	0x3d2d32fb	0.042284947
172	0x3e4109e9	0.18851437
173	0x3bc17b6d	0.005904606
174	0x3e33a70e	0.17544195
175	0xbdbe1ca9	-0.0928281
176	0x3dbb0c71	0.091332324
177	0x3d556d4b	0.052106183
178	0xbd4ce396	-0.05002173
179	0x3c1771bb	0.009243424
180	0xbdab1dbd	-0.083552815
181	0x3e28aa22	0.1647115
182	0x3d103787	0.035209205
183	0xbd93f94c	-0.07225284
184	0x3d0b8769	0.034064684
185	0x3d3e54b3	0.046467494
186	0x3cddfdc1	0.027098538
187	0xbe196821	-0.14981128
188	0x3d96fd19	0.07372493
189	0x3cc73be7	0.024320556
190	0xbd4d4798	-0.050117105
191	0x3e24700e	0.1605837
192	0x3dc1cff2	0.094634905
193	0xbe4cc85d	-0.19998308
194	0xbd039aa6	-0.032129906
195	0xbe161944	-0.14658076
196	0xbe3514c0	-0.17683697
197	0x3abac4e1	0.0014249348
198	0x3df6b7ef	0.12046801
199	0x3e1c11c8	0.15241158
200	0xbc31c484	-0.010850076
201	0x3dbfd6a6	0.09367113
202	0x3c044dc4	0.008075181
203	0xbd9b52b0	-0.07584131
204	0x3da7657e	0.08173655
205	0xbcfb0bab	-0.030645212
206	0x3d3ab86e	0.045586042
207	0x3dbc1cb3	0.091851614
208	0xbdddf2e1	-0.10837341
209	0x3cc43e17	0.023955388
210	0xbe00af79	-0.12566938
211	0xbd22fc16	-0.03979119
212	0x3e377283	0.17914777
213	0xbdf11ad8	-0.11772698
214	0x3d613dd5	0.05499061
215	0xbdb4e4d3	-0.08832707
216	0xbd7f9b07	-0.062403705
217	0xbde5b1e0	-0.112155676
218	0xbb86d2ab	-0.004114469
219	0xbdad157c	-0.084513634
220	0xbd7e74da	-0.062123157
221	0xbdd0022c	-0.10156664
222	0x3d6e4f97	0.05818137
223	0x3b914f48	0.0044345
224	0x3d7cf2e6	0.061755084
225	0x3dd53921	0.10411287
226	0x3d89181b	0.06694051
227	0x3d8ca111	0.068666585
228	0x3daf2fd9	0.08554048
229	0x3c9e973d	0.019359225
230	0x3e129a88	0.14316761
231	0x3d9d9c2f	0.07695805
232	0xbc877bc7	-0.016538514
233	0x3dca6204	0.09881976
234	0x3d960b3a	0.0732636
235	0xbe3b528a	-0.18293205
236	0xbb46ba3d	-0.003032341
237	0xbd52473e	-0.051337473
238	0x3b07a8f6	0.0020700074
239	0x3d8c2d20	0.068445444
240	0xbe2932ec	-0.16523331
241	0xbe266f9c	-0.16253513
242	0x3d9f3e81	0.077755935
243	0xbd905055	-0.07046572
244	0xbe1699df	-0.14707135
245	0xbdb5c6b6	-0.08875792
246	0xbd23d4ea	-0.039997973
247	0xbcb51fc1	-0.022109868
248	0xbd099352	-0.03358776
249	0xbe03772b	-0.12838428
250	0xbe2f99ba	-0.17148486
251	0x3c102b64	0.008799408
252	0xbe489eaf	-0.19591783
253	0x3e3dc358	0.18531549
254	0x3c257420	0.010098487
255	0xbc1b3483	-0.009472969

onnx::LSTM_111 f4 [1, 400]
0	0x3e4518ff	0.19247817
1	0xbc3f2a85	-0.011667852
2	0x3e5de1fc	0.21668237
3	0x3e4a3dde	0.19750163
4	0xbdafb160	-0.085787535
5	0x3df8b09c	0.121430606
6	0x3e0a8dde	0.1353068
7	0xbe20aa24	-0.15689903
8	0x3db01e4d	0.085995294
9	0x3e778de8	0.24175227
10	0x3e06464f	0.13112758
11	0x3e06b00e	0.13153097
12	0x3b8e35db	0.004339916
13	0x3e56de45	0.20983227
14	0x3dd587ae	0.104262695
15	0xbe10f42f	-0.14155649
16	0x3cf4a7f5	0.029865244
17	0x3e6c3538	0.23067176
18	0xbc961de9	-0.01832481
19	0xbcdd3933	-0.027004814
20	0x3e4e4044	0.20141703
21	0xbdd9558c	-0.1061202
22	0x3decb574	0.11558047
23	0x3c9eb3b9	0.019372808
24	0x3cdcac0d	0.026937509
25	0xbde49f5c	-0.11163208
26	0x3c46ec79	0.01214134
27	0xbb8aaddb	-0.004232151
28	0xbd686403	-0.056736004
29	0xbdbc6fff	-0.09201049
30	0xbd38345c	-0.04497181
31	0x3d9a7ac3	0.07542946
32	0xbd0e78d7	-0.03478321
33	0x3e4a9a02	0.19785312
34	0xbd67d544	-0.05659987
35	0x3e5a88e7	0.21341287
36	0x3e451898	0.19247663
37	0x3c1734c0	0.009228885
38	0x3e69165a	0.22762433
39	0xbc9559ca	-0.018231291
40	0xbddd8ddf	-0.108180754
41	0x3ddc3aa7	0.107533745
42	0x3e6a0df8	0.22856891
43	0x3cdfd078	0.027321085
44	0xbd5f918f	-0.054582175
45	0x3e36d5bc	0.1785497
46	0x3dfce6ee	0.12348734
47	0x3da9bad4	0.08287588
48	0x3d476b8e	0.048686557
49	0x3ca377f5	0.01995466
50	0xbbdec97f	-0.0067989225
51	0x3e2eac3e	0.17057893
52	0x3e40f4ac	0.18843335
53	0x3e75deb1	0.24010731
54	0xbbacd990	-0.005274959
55	0x3e4476da	0.19185963
56	0x3e572b1e	0.21012542
57	0xbdc5934a	-0.09647234
58	0x3e215f2a	0.15758958
59	0x3cef524c	0.029214047
60	0x3e20722f	0.15668558
61	0x3e262430	0.16224742
62	0xbd8cdeaf	-0.06878411
63	0xbbb830b8	-0.005621042
64	0xbbc4dec3	-0.0060080006
65	0x3dc488ad	0.09596381
66	0xbccdabcf	-0.025106339
67	0x3e21763b	0.15767758
68	0x3c1f8d31	0.0097382525
69	0xbddf0e8d	-0.10891447
70	0x3b06cc4d	0.002056855
71	0xbcc85b66	-0.024457645
72	0x3c7e9972	0.015539514
73	0x3e2a10a3	0.16607909
74	0x3dd2b099	0.102875896
75	0x3df5c7f4	0.12001029
76	0x3e3d691a	0.18497124
77	0x3e5bd214	0.21466857
78	0x3dce50e0	0.100740194
79	0x3d3f5ceb	0.046719473
80	0xbd373b42	-0.044734247
81	0xbdac1f4d	-0.08404408
82	0x3d2572ac	0.040392563
83	0x3e1b4734	0.1516388
84	0xbc5c2b3d	-0.013438043
85	0x3e64839c	0.2231583
86	0x3c63ec45	0.0139113115
87	0xbc890269	-0.016724782
88	0xbd098227	-0.03357139
89	0x3e2979ae	0.16550323
90	0xbc1e8a27	-0.009676493
91	0xbd35e0bf	-0.044403788
92	0x3d220b22	0.0395614
93	0x3d9f2c5c	0.07772133
94	0x3e4d0cca	0.2002441
95	0x3e49f7ca	0.1972343
96	0xbd4703ca	-0.048587598
97	0x3e44d8a2	0.19223264
98	0xbe0684b8	-0.13136566
99	0x3e5406c0	0.207057
100	0x3e152e63	0.14568476
101	0x3d142715	0.036170084
102	0x3d8f3d63	0.069941305
103	0x3e0dfd47	0.13866149
104	0xbdc5061d	-0.09620307
105	0xbd29ccad	-0.04145496
106	0x3d67adb4	0.05656214
107	0x3e2735fa	0.16329184
108	0x3d00db72	0.03145928
109	0xbe147148	-0.14496338
110	0x3d9f775e	0.07786439
111	0xbcbf0509	-0.02331783
112	0x3db19182	0.086703315
113	0x3df414ee	0.119180545
114	0x3c4ffbda	0.012694323
115	0x3d60f397	0.054919805
116	0x3e18e1d2	0.14929894
117	0x3d3650e0	0.044510722
118	0x3e2034df	0.15645169
119	0x3da30edc	0.079618186
120	0x3e09a285	0.13440903
121	0x3d85877f	0.065199845
122	0xbe0ab89f	-0.1354699
123	0x3dc558d3	0.096360825
124	0xbd2dfd43	-0.042477857
125	0x3db0cc84	0.08632758
126	0x3dc493cd	0.09598503
127	0x3e00ffb0	0.12597537
128	0xbe09b6bb	-0.13448612
129	0xbd5d175d	-0.05397736
130	0x3d7c69eb	0.06162445
131	0x3cea8c4a	0.028631348
132	0x3b80b6a9	0.003928025
133	0xbd007ffa	-0.031372048
134	0x3dc2f952	0.0952021
135	0x3c904bc6	0.017614257
136	0xbccd1777	-0.025035603
137	0x3e1aae26	0.15105495
138	0x3de4d428	0.11173278
139	0xbd918309	-0.07105071
140	0x3e135d1a	0.14390984
141	0xbd892794	-0.06697002
142	0xbe1c8b63	-0.15287547
143	0xbd00f67f	-0.031485077
144	0x3c65bf20	0.0140226185
145	0x3da51406	0.0806046
146	0x3dd0e0d5	0.10199133
147	0x3d091f05	0.03347685
148	0x3e01d327	0.12678204
149	0x3c715ec6	0.014732068
150	0x3d93f70c	0.07224855
151	0x3e2d098d	0.16898175
152	0xbe348c72	-0.176317
153	0x3d2033ec	0.039112017
154	0xbd5f0050	-0.054443657
155	0x3e01917d	0.12653156
156	0xbd8d7cf4	-0.069085985
157	0x3d9afabf	0.07567357
158	0xbd39eb49	-0.0453904
159	0x3dd25839	0.102707334
160	0x3dcc2209	0.09967429
161	0x3d4922cb	0.049105447
162	0x3c5c6865	0.013452624
163	0xbddfb92f	-0.10923993
164	0xbcc11181	-0.023567917
165	0xbdaa54fa	-0.08316989
166	0xbe62e64b	-0.22158162
167	0xbd59b4c6	-0.053150915
168	0xbd969668	-0.073529065
169	0xbe03309e	-0.12811515
170	0xbd80ac9f	-0.06282925
171	0xbd19c907	-0.03754523
172	0x3dfd790f	0.12376606
173	0xbd837925	-0.06419591
174	0x3dff498f	0.12465202
175	0xbe204bc8	-0.15653908
176	0x3e2636b8	0.16231811
177	0xbce150ff	-0.027504442
178	0xbde475e2	-0.11155297
179	0xbd2360b4	-0.039887145
180	0xb9d47a2f	-0.00040526825
181	0x3db0c450	0.08631194
182	0x3df3e1c9	0.119082995
183	0x3d2a1ccd	0.041531373
184	0x3dfc7aa4	0.12328079
185	0xbd9283ed	-0.07154069
186	0xbe0a5d8c	-0.13512248
187	0xbe34af7f	-0.17645071
188	0x3d31f2bc	0.04344438
189	0x3df92a22	0.12166239
190	0xbd0a6343	-0.03378607
191	0x3e39895e	0.18118808
192	0x3e0fe08c	0.14050502
193	0x3d8ea4c8	0.06965023
194	0x3dfc6ef9	0.12325854
195	0xbd81f00f	-0.06344616
196	0xba6a7f6d	-0.00089453795
197	0x3cb37550	0.021906525
198	0xbda895c5	-0.08231691
199	0x3d9befa6	0.07614069
200	0x3e12e3c5	0.143447
201	0xbc9eeff2	-0.019401524
202	0x3d1dd32b	0.038531464
203	0x3d1f1aed	0.038844038
204	0xbe1b24f0	-0.1515081
205	0x3ca70f33	0.02039299
206	0x3cd82db5	0.026388982
207	0x3bc1cc84	0.0059142727
208	0x3da1e407	0.07904821
209	0x3e22f63e	0.15914246
210	0x3e322fa2	0.17400983
211	0x3e21be58	0.15795267
212	0x3e057ac0	0.13035107
213	0xbc041a4c	-0.00806291
214	0x3e252215	0.16126283
215	0xbe01080c	-0.12600726
216	0x3d35743b	0.0443003
217	0x3dea5741	0.114424236
218	0xbcb28587	-0.021792186
219	0xbdbd9c57	-0.09258335
220	0x3d501d18	0.050808996
221	0xbb5713d6	-0.003281822
222	0x3cb587a3	0.022159403
223	0x3e2375d7	0.15962921
224	0x3e5f807c	0.21826357
225	0xbd45854d	-0.04822283
226	0xbba00261	-0.004883096
227	0x3e157ffd	0.14599605
228	0x3d9aa48e	0.075509176
229	0x3ddcd501	0.10782815
230	0xbd564070	-0.052307546
231	0x3d5be78b	0.053687613
232	0x3e14633b	0.14490978
233	0x3e12feab	0.1435496
234	0x3cde629f	0.027146636
235	0x3daca4df	0.08429884
236	0x3e330e99	0.17486037
237	0x3e1ce16b	0.15320365
238	0x3e7149a2	0.23563245
239	0x3bf5b94f	0.007498897
240	0x3c7cb943	0.015425029
241	0xbde07b68	-0.10961038
242	0x3e097cf8	0.13426578
243	0x3e2928c7	0.16519462
244	0xbd3b98f5	-0.045800168
245	0xbc6149bb	-0.013750489
246	0xbb9ed419	-0.0048470614
247	0x3df28711	0.11842168
248	0xbe037b0e	-0.1283991
249	0x3cfcc12b	0.030853828
250	0x3d888512	0.06666006
251	0xbd27dc57	-0.040981617
252	0x3e5847ec	0.21121186
253	0x3da943ce	0.08264886
254	0xbdf9f94d	-0.122057535
255	0x3cd48245	0.025941024
